examples_HF/models/double_well1d/model_double_well1d_g_GM_unbalanced_reg_PDE_3.pth (torch, 38088 bytes, 7 tensors)

net.0.weight f4 [64, 2]
00000000: 4286 603e 3b4b 463e f668 073f a1f0 5fbe
00000010: da0c 853e 1056 fdbe b27f 0a3e eb66 5b3f
00000020: 146c cabe db4a 85bf be68 d0be dd1f 62bf
00000030: d396 7e3e 9f05 40bf ee6f 893c db6b 953e
00000040: ca26 22be 262b 40bf efe8 1f3f e2d4 49be
00000050: 9921 86bd 50be e43e ccfa 983e 01ce 4d3f
00000060: a14d 963d d8d1 3a3f dcf4 b43e e497 993e
00000070: 598c 573e 3277 5f3f e142 8abe 24ee edbe
00000080: 6a74 70be 8e22 2dbf d0eb d7bd 9f0e c53d
00000090: 80b1 f6be d625 72bf b6f7 803d 6e29 b9be
000000a0: 2fec 933d 5b9d abbe 3add d33e 8659 b43d
000000b0: 7240 e33e 197e 0dbf e352 6f3e 7a26 fc3e
000000c0: bc63 083f e52b 853e 6361 013f a04c b4be
000000d0: 2305 99be 162b 50bf 98f1 64be 6c9e c0bd
000000e0: 1806 46bf ff56 6cbf dcc6 283e 3506 753d
000000f0: 8ac3 e33d 1614 2f3f aecd 4e3e f2fc 2abf
00000100: 4a4d 773d 585d f13e 7068 383e dc13 853f
00000110: cfe4 df3e 4e6b b23e a355 183f 648a 3cbe
00000120: 2f55 373d 5c0c 03bf cd04 bebc b70a efbe
00000130: 2bed 6dbe 35b4 43be 40ac 8a3d 732d 71be
00000140: 16e4 173e 7ff3 0dbf 3067 dabb 3b8d 05bf
00000150: 0d09 4cbd f658 f83e 52e3 a03e 4ca8 b83e
00000160: 0476 93be 5d97 41bf fb23 843e 7026 fbbc
00000170: 0ace e4be b869 73bf 2b44 28be 0d5e 33bf
00000180: 37c5 52be 5d6c 883d 6ff1 42be c6f1 523f
00000190: 9e49 82bd c25e f23e b037 34be 057c b5be
000001a0: 39cc 1fbe e92f 3cbf f237 0f3e f48c 413d
000001b0: 94c4 82be 9788 a1bf 4a37 273f 9d91 a1be
000001c0: 31b8 8e3c e579 f8be bf7b 003f 8045 fabc
000001d0: bfab 81be efb4 acbe 7a94 1fbe a704 0abe
000001e0: 4b9b 453f 8648 5dbe 0b9e 3cbf 202f 8fbf
000001f0: 3566 69be 801d 733f 1ef9 e3ba 2f63 16bf
0.21926215 0.19364636 0.5289453 -0.21869136 0.25986367 -0.49479723 0.13525274 0.85703915
-0.39535582 -1.0413469 -0.40704912 -0.8832987 0.24862222 -0.7500858 0.016777005 0.2918385
-0.1583511 -0.7506584 0.62464803 -0.19710115 -0.06549377 0.44676447 0.29878843 0.8039246
0.07339025 0.72976446 0.35343063 0.29998696 0.21049632 0.8729125 -0.2700415 -0.4647075
-0.23481908 -0.6763085 -0.105430245 0.096219294 -0.48182297 -0.94588983 0.06297247 -0.3616442
0.07222783 -0.3351849 0.4137972 0.08806138 0.44385105 -0.55270535 0.23371463 0.49248105
0.5327718 0.2601005 0.50539225 -0.3521471 -0.29886732 -0.81315744 -0.22357786 -0.094052166
-0.7735305 -0.92320246 0.16482109 0.059820373 0.111212805 0.68390024 0.20195648 -0.66792214
0.060376443 0.47141528 0.1800859 1.0396686 0.43729255 0.34847492 0.5950567 -0.18412167
0.04475897 -0.51190734 -0.023195649 -0.46687862 -0.23235004 -0.19111712 0.06771135 -0.23552494
0.14833102 -0.5544967 -0.006665133 -0.52168626 -0.04981332 0.48505372 0.31423432 0.360659
-0.28800976 -0.7562159 0.258087 -0.030657977 -0.44688445 -0.9508319 -0.16432254 -0.70065385
-0.20583044 0.06661294 -0.19037412 0.82400167 -0.063616976 0.4733792 -0.17599368 -0.35446182
-0.15605249 -0.73510605 0.13986185 0.047253564 -0.25540602 -1.2619809 0.6531874 -0.31556407
0.017421814 -0.48530498 0.5018882 -0.030550718 -0.25326344 -0.3373179 -0.15583983 -0.13478337
0.77190083 -0.21609697 -0.73678654 -1.1186256 -0.22792895 0.9496689 -0.0017392968 -0.5874509

net.0.bias f4 [64]
00000000: 49cd 2d3f 3fa5 ad3e 03ed 01bf 8b2d aebe
00000010: 5562 233e 4c79 cabd a254 c9be 3a4b a4be
00000020: 910b acbd dcf5 f9be 496f 1abf c6b8 193d
00000030: 4262 163f 2de1 30bf bb84 dcbd d457 c0be
00000040: 43b5 f73d 4187 f0be 9b43 e63d ec5a 01bf
00000050: 5606 643f 27c9 24bf f3d7 ef3e 547a 003f
00000060: 5ed5 f7be e00c 8d3e 8af2 203e a557 7abf
00000070: 3eb2 b63e be2f 1e3f d3ea 0ebf 66ce d93e
00000080: 2179 76be 1313 b7be b67f 11bf 6dd7 f6be
00000090: 49f9 933e 26fa 8bbd 5c22 a8be 24a5 cbbe
000000a0: 0d48 ae3e b428 5e3d 5028 15bf 4a6d 4b3f
000000b0: f3ee 63bf b971 713e 6df9 643e c680 17be
000000c0: 3105 5dbf 148e 93bd 7e5e 4ebe f08a 19bf
000000d0: 57b4 99bd 0132 1f3f 1549 1ebd 1ede 593e
000000e0: 0e93 233f b469 683e 6af1 ddbd e3f4 22bf
000000f0: 45bd 1fbf b200 9a3e 8d4d 62bd 55ba b33d
0.67891365 0.33915135 -0.50752276 -0.34019122 0.1595548 -0.09886417 -0.39322382 -0.32088643
-0.084006436 -0.48820388 -0.6032606 0.03752973 0.5874368 -0.6909359 -0.10767504 -0.37567008
0.1209512 -0.4697819 0.112433635 -0.5052936 0.8907217 -0.64369434 0.46844444 0.5018666
-0.48404974 0.27548885 0.15717521 -0.97789985 0.35682863 0.617916 -0.55827063 0.42540282
-0.24069645 -0.3575674 -0.56835496 -0.48211232 0.28901127 -0.068348214 -0.32838714 -0.3977443
0.34039345 0.054238036 -0.58264637 0.79463637 -0.8903648 0.23578538 0.22360773 -0.14795217
-0.86336046 -0.072048336 -0.20153233 -0.59977627 -0.075051 0.62185675 -0.038643915 0.21276137
0.6389626 0.22696573 -0.10837062 -0.6365492 -0.6239818 0.30078655 -0.05524974 0.087757744

net.2.weight f4 [64, 64]
00000000: bb02 25be ba73 24be 2cb1 a73d 56ba 063e
00000010: 419f 44bd 0ed2 083d a499 04be f95a af3d
00000020: 599a 6a3d 0dd1 97bd c769 883d be4b f13c
00000030: e68e c93c b99e 9e3d 4565 7b3c 5966 94bd
00000040: 75f5 8a3d d40b 3bbd 58a8 18bd 65ad 863d
00000050: 0694 eebd cb4c 03bd 99fa 0dbe aa3c 29be
00000060: ddfa 8c3d edf0 f4bd 3a7c d0bb f121 803c
00000070: e412 00bd bf08 b5bd 3167 b13d 3ba8 31be
00000080: 9b60 85bd c52d 4a3e e8ac 933d 466d 2d3d
00000090: e227 453e eb95 653d f81d aebd 571e 213d
000000a0: b426 edbd 0922 173d e271 853d 777b adbd
000000b0: 0a7f c03d 322d 1abe 7882 e43d bfbf 5b3e
000000c0: fcfd 64bd 5a4f 103d c466 fbbd b642 8e3d
000000d0: 5a4d 813e 9487 01be d7a2 a63d 45b8 46bd
000000e0: f352 6fbe d1a1 11be b3e6 aabd 1320 883d
000000f0: 1f4f c6bc 8a7c 9abd 62f7 9d3d 2e8d 1d3d
00000100: 3321 b2be 81fb 93bb 07d6 47bd bccc 993e
00000110: b007 d3bd b5e6 0ebe b014 4f3c a175 a43e
00000120: a52c 02bd fb52 5dbd 18a8 c6bd d8a6 25be
00000130: 900f 11be d24b 9e3d 2ba3 b23d 3146 55bd
00000140: 7b85 74bd 82b9 f43c 05f8 b33c e983 1d3d
00000150: 7226 89be c969 a23d 2cc6 41be e8d3 51be
00000160: 61b0 9c3d fdb6 88bd 0e50 2ebd a086 d33c
00000170: b74e 21be e072 3bbe 858b 0b3e 120f 70be
00000180: f068 183f b92c b83e ce02 ec3c da10 9fbd
00000190: 4cbf 32be f7e9 c43d abe3 0bbd c887 2e3e
000001a0: 1448 efbc 2ab1 5f3c eb36 0c3e 5dcf 21be
000001b0: 9a49 df3d 0328 0abe bc0e 1bbe 868c 81be
000001c0: e056 36bd b53e 53bc 718f a23d 768f e03b
000001d0: db8c b2be 5246 eebd 152b 59bd 8d82 e7bd
000001e0: ab72 eebe 82e4 2abe 6875 c13b 9e46 043d
000001f0: f7a6 b6bd b8be 2e3c 936d 81bc f661 a1bd
00000200: fdab 10bd 71ae 2d3e bd1d b73e ad1d 0d3e
00000210: 86d3 85bd a7a2 f2bd 5751 de3e cfa5 bf3d
00000220: 3001 a9bc b104 ce3d 0ccd 98bd 9049 3e3d
00000230: 7e37 e9bc f6ae a13e e6c0 893c e449 29be
00000240: 5122 17bd d132 a6bd 62ca 81be 0c44 fc3d
00000250: ffe6 95bd 5a3a 443e f020 233d 637e 163c
00000260: e505 833e 9eed 643d 586a ffbd aa54 bfbd
00000270: 55b0 8ebe b85b 64bd a4c0 2f3e 0a61 aebc
00000280: 211f 403e 2724 ea3d 45a8 813e d8c4 583e
00000290: 51df d13d 9f86 d93c 3722 48be bdde 5d3e
000002a0: 042a 193e b18a 6d3e 3486 81be 1dc8 5dbd
000002b0: 69dc 79bc aa9a 32bc d6c1 4bbe d80b 603d
000002c0: 75cd bdbd fb40 74bf 0c05 bdbe 9f94 20be
000002d0: a5d7 efbd d715 30be 15da 29be 73c8 273e
000002e0: 7a83 f5bd d649 143e 68b3 51be 8cdc d0bd
000002f0: d628 9f3e ca35 babe 4b0e abbf 2b9b 763e
00000300: b48e 223d fcb9 7f3d e213 0cbc d51a a1bd
00000310: 8889 11bd 38d7 c8bd c877 103e c406 5f3e
00000320: 915e 0c3e f06a f6bc c5f5 113e 1474 bc3d
00000330: af09 033e 517b 8c3c 00d0 0abb 8c32 1cbd
00000340: c955 d83d ed43 803d ffa3 983d 0e30 423d
00000350: c574 2bbe 3ce1 b9bc e784 3f3d 200b 863d
00000360: c0c4 8f3c aa6f e9bc 6fe0 8dbd bc27 03bd
00000370: 44e0 b03d 126b 88bd 9bf3 8cbd ce65 583e
00000380: c1eb 783d 6b0a 863c e380 3ebd 2085 28bd
00000390: f0a0 bfbd ce60 f5bc b5ca 6ebd b113 24bc
000003a0: 611a 2c3e b287 a13d 79d5 5d3d b207 cb3d
000003b0: 4256 19be 8a8c dc3d 0369 c43c 9935 89bc
000003c0: 616b dc3d 4da4 e03c 0f80 3cbd d257 4c3d
000003d0: a89b 923d 8d83 dfbc d1f5 e4bc 932d 863d
000003e0: bebf 82bd bb64 93bc c70f 833d 281b 533b
000003f0: 2053 553d aaf6 d13d 24f5 683d 20a8 093d
-0.16114323 -0.16059771 0.0818809 0.13157019 -0.04800344 0.03340345 -0.12949234 0.085622735
0.057276104 -0.0741292 0.066608004 0.029455062 0.024604272 0.07745118 0.015343969 -0.07246084
0.067850985 -0.045665577 -0.03726992 0.06576041 -0.11649327 -0.032055657 -0.13865127 -0.16527048
0.06883786 -0.119600154 -0.006362465 0.015641185 -0.031268016 -0.08839559 0.0866226 -0.17349331
-0.06512567 0.19744022 0.072107136 0.04234054 0.19253495 0.056051176 -0.0850181 0.039335575
-0.11579648 0.036897693 0.06515862 -0.08470815 0.09399231 -0.15056303 0.111576974 0.21459864
-0.05590628 0.035231926 -0.1227546 0.06946318 0.25254327 -0.12649375 0.08136528 -0.048515577
-0.23371486 -0.14221884 -0.08344784 0.06646743 -0.02420765 -0.07543285 0.077132 0.038464718
-0.34790954 -0.0045160656 -0.048788097 0.30039012 -0.10304201 -0.13955195 0.01263921 0.32120994
-0.031780858 -0.054034214 -0.0970003 -0.16176927 -0.14166093 0.07729305 0.08722528 -0.052068893
-0.05969761 0.029873613 0.02196885 0.038455877 -0.26787144 0.07930333 -0.18923253 -0.20490992
0.07650829 -0.06675527 -0.042556815 0.02582103 -0.15752684 -0.1830554 0.13627441 -0.23443249
0.5953512 0.3597162 0.028809931 -0.07766886 -0.17455786 0.09614938 -0.034152668 0.17043984
-0.029209174 0.013653079 0.13692825 -0.15801759 0.1090271 -0.13491826 -0.1514234 -0.25302523
-0.044516444 -0.0128933685 0.079375155 0.0068530394 -0.3487309 -0.11634506 -0.0530196 -0.113041975
-0.4657186 -0.16688731 0.0059038885 0.03229391 -0.08918565 0.010665588 -0.01579932 -0.07880013
-0.03532027 0.16961075 0.35764876 0.13780852 -0.065344855 -0.1184743 0.43421432 0.09357797
-0.020630449 0.100594886 -0.074609846 0.046456873 -0.028468844 0.31578797 0.016815614 -0.16532093
-0.03689796 -0.08115161 -0.25349718 0.123176664 -0.0731945 0.19162884 0.039826334 0.009185406
0.25590435 0.055890672 -0.12471455 -0.0934232 -0.27868906 -0.055751532 0.1716333 -0.021286506
0.18761875 0.11432677 0.25323692 0.2116884 0.10247672 0.02655345 -0.19544302 0.21666999
0.14957434 0.23197438 -0.252977 -0.05414592 -0.015250304 -0.010901133 -0.19898161 0.054698795
-0.092677034 -0.9541165 -0.36917913 -0.15681694 -0.11711053 -0.17195831 -0.16587098 0.16385059
-0.11987968 0.14481291 -0.20478594 -0.10198316 0.31085843 -0.36369163 -1.3363737 0.2408263
0.039686874 0.062433228 -0.008549662 -0.07866446 -0.03553155 -0.09806675 0.14108193 0.21779925
0.13707949 -0.030080289 0.1425391 0.09201828 0.12796663 0.017148646 -0.0021181107 -0.038134143
0.10563237 0.06262956 0.07453155 0.04740911 -0.16743763 -0.022690408 0.046757605 0.06545091
0.017549872 -0.028495628 -0.06927573 -0.032020316 0.08636525 -0.06661047 -0.068824016 0.21132585
0.060771707 0.01636239 -0.046509635 -0.041142583 -0.09356868 -0.029953387 -0.058298785 -0.01001446
0.16806938 0.0788721 0.05415866 0.09913577 -0.14974311 0.10768993 0.023975855 -0.01674919
0.107626684 0.027422095 -0.046020564 0.04988844 0.07158595 -0.027284408 -0.027949246 0.06551661
-0.06384228 -0.017992368 0.06399494 0.0032212231 0.052081227 0.102521256 0.05687441 0.033607602

net.2.bias f4 [64]
00000000: f303 04be cb0d 0bbe 55b2 2c3c eb0f d83d
00000010: 0a98 72be e594 6dbe bf10 50bd 9316 3ebe
00000020: f9f5 fcbd 6c87 543c d5c3 3fbe 49b7 0b3d
00000030: 8df5 8fbb d43f a1bb 6b51 50be ed5c d0bd
00000040: 43e7 95bd 29e4 e8bb 6212 393d d926 14be
00000050: c249 68be 9b77 ee3b f1dd 55be 6f2d 96be
00000060: 6748 87bd 3c17 79be ab35 58bd d512 e0bd
00000070: e66f 27bd bb14 52bd 3727 d23d b9c7 abbd
00000080: bb36 89bd 1ee5 5cbe b29d 4fbd 21cf 63be
00000090: 9adf d1bd ec9d 253d 1670 2bbe effe c4bc
000000a0: 9779 61be 50f2 a0be 2be8 a9be b594 5f3d
000000b0: 85bf 6fbe a141 73be a9ba 1abe 81ed 85be
000000c0: 9df3 eebd 38bc 60be d768 223d c6c2 04bc
000000d0: 0183 a3bd 7632 4abe fa4f 9abd 3906 2ebe
000000e0: f4d5 0dbe 1b34 b4bc 35b8 563d b27f e5bd
000000f0: da71 5abe 5da2 d7bd 4b9e 3cbc afd9 e2bc
-0.12892132 -0.1357948 0.010540565 0.10549911 -0.23690811 -0.2320133 -0.05079722 -0.18563299
-0.12351603 0.01297174 -0.18727048 0.03411034 -0.0043932856 -0.004920939 -0.20343558 -0.10173974
-0.073195 -0.007107277 0.045183547 -0.14467944 -0.22684386 0.0072774417 -0.20885445 -0.29331538
-0.066056065 -0.2432527 -0.052785557 -0.10941092 -0.0408782 -0.0512893 0.10261386 -0.083877034
-0.06699892 -0.21571776 -0.0506875 -0.22246982 -0.10247727 0.04043381 -0.16741976 -0.024047343
-0.22019039 -0.3143487 -0.33184943 0.054585177 -0.23412903 -0.23755504 -0.15110268 -0.26157764
-0.11667559 -0.219468 0.039650764 -0.008103078 -0.079839714 -0.19745812 -0.075347856 -0.16994561
-0.13851148 -0.021997502 0.052421767 -0.112059966 -0.21332493 -0.10529015 -0.011512349 -0.02769169

net.4.weight f4 [64, 64]
00000000: 21c4 4bbc 72e1 a33d 9ebd 31bd dcd7 acbd
00000010: c64f 3bbc 927f de3c dfe3 1dbc 1663 ce3c
00000020: 8950 57bd a257 973d 5d5c c3bc fbcb 1ebd
00000030: 2413 35bd 549d 7c3b 99e6 4d3c 9a71 9f3b
00000040: 94b7 81bc e491 e9bb 7341 8abd 6b71 d5bd
00000050: f8b8 76bc 6f44 993d 337f f8bd 34b6 e1ba
00000060: 9eb6 d63d 4451 a9bc 0898 c7bc 5102 273d
00000070: 8da8 883c 355b 68bd 1104 b53d 8eb0 24be
00000080: f9d5 84bb df8c 833d 4fe0 ab3c 010d 593b
00000090: 80ae 8f3d 3aa3 1bbd 3e81 f43b 6a71 323e
000000a0: 9904 edba 20fc 873c 8ec3 7abd d11b 11bd
000000b0: 44c7 773b 42c9 44bd de44 1fbd 23ad 66ba
000000c0: a692 f33c 5301 55bd ec6d 80bd b1d1 2e3d
000000d0: 589d b73d e83a 96bc c12f 3ebc a52f 7bbc
000000e0: 4896 d53d eacd ddbd ba86 17be 9650 25bd
000000f0: b51c b9bc 0939 853c 5a0b 15bc 0723 af3d
00000100: 864b d03c 15d2 b9bd a851 25bd c477 c83d
00000110: 626d 823d e573 c43d 59cd 1abe ee19 203d
00000120: a51a e53d 00eb 893c 5367 ba3c 2df8 54be
00000130: 48ac 87be 2f30 773d ebe7 5b3d ea41 093d
00000140: f7f6 3f3d e7ff e13c 7d9f a6bc d9d9 54bc
00000150: 97ed fe3c 90ce 01bd b7d1 9fbd 034c acbc
00000160: 07af 52ba a1fb e93d 7d11 063d 5666 2e3e
00000170: 61c5 d23d 9ac5 3b3d 97a3 9f3d 26ce a63c
00000180: 3ae5 df3d 00a1 d03d 6488 e4bc 7435 22bd
00000190: bc2d a43d ffcf 8fbe d29f 02be fbf2 903d
000001a0: 8091 d9bc ca05 913c dd2e 8b3d 57d3 f43c
000001b0: 6671 5cbd b27d 073c afb5 b03d 3f88 023c
000001c0: 3925 063e ae9a 0f3e 4c0b 23be 87b0 e23d
000001d0: 8444 f1bd f7d5 f7bd 2246 85be f894 b4bc
000001e0: 16f3 553b 4fae d13c 1547 263e 69c5 dbbd
000001f0: 7d14 9ebd f49e 1dbd f982 87be 87f5 2b3e
00000200: a418 113d f645 6b3d 0227 08bd 2469 d0bd
00000210: f31e f8bd ad78 073d 82b7 a53b 0d75 60ba
00000220: 9c40 27bd 5325 47bd 1bdd ce3d cbe6 c03c
00000230: 2d25 9dbd 6847 febc 7510 a0bd c46d 3abc
00000240: 1b8d 96bd e3af cf3b f0ad 94b7 36c3 a8b9
00000250: 1168 4c3d 8b19 a53c 0a50 9a3c 17ec 1bbd
00000260: af5e b7bc 5ece 8c3d c8f3 0cbc b436 f53c
00000270: bbac 59bd 2f48 ca3b b86a 433c 5e84 bebd
00000280: 572d 3a3c 3158 843d d19a a7bd 75e6 30bd
00000290: fd30 503d 81e5 4fbd eff9 76bd bec0 213d
000002a0: b58a 25bd ffe0 da3d 39a5 0dbb 621d 9bbd
000002b0: 9363 e33c e02f 253d ae02 10bd f8d9 633c
000002c0: 7ee4 b13c 16ef cbbc 27db ecbd 350d 1bbd
000002d0: d907 153e 9300 d03c 2a3e eebc 7cc5 fcbd
000002e0: ab12 38bd d679 e63c a1e4 1d3c ec03 15bc
000002f0: 5b98 20bd c674 abbd 988c 553d db52 cc3d
00000300: 3899 b73d a472 333e 693d 14be 5021 5bbd
00000310: 3af4 4abe 35ee bcbd 1593 e03d 1f15 69bf
00000320: 2787 973c 9471 06be 8caa 0b3e 7962 f93b
00000330: 573b 30bd b485 323d 9a86 463c ec17 dfbd
00000340: a505 0b3d 1590 0a3e ec24 c5bd 4266 b13d
00000350: dbfc 5e3d e3e2 e7bd 9c69 e13d 3f90 95bd
00000360: 93d4 1e3d bdb9 b4bc 7aae 48be f569 1f3d
00000370: a9d8 3abd 4b25 5e3d ea3d 3d3e 1f4d c23d
00000380: 9aed 48bd b8cb 9cbc 3051 14be ad53 3f3c
00000390: 686e 623a 7525 1b3e b419 8bbd 77a4 98bb
000003a0: 28cf 8fbd 5d33 233e eacb 8dbe b2a5 883d
000003b0: 6ed2 8dbd 4e65 45be 8824 b8bc bf64 dfbc
000003c0: ea61 063c 5c0f 06bd 67cd 633e 247d 0d3e
000003d0: 0b73 833b 608d 563d 6898 9cbd 67ec cb3c
000003e0: 840e abbd 3cc1 42be 8991 cb3d 9980 2b3d
000003f0: 7d2a 9b3d 0f8a 24be a33f 643e fb1d a03d
-0.0124368975 0.08001985 -0.043393724 -0.084396094 -0.011432594 0.02716044 -0.009636848 0.025193732
-0.05256704 0.073897615 -0.023847753 -0.03876875 -0.044207707 0.0038545923 0.012567186 0.0048658373
-0.015834607 -0.007127987 -0.06750765 -0.104220234 -0.015058748 0.07483756 -0.12133636 -0.0017220438
0.1048405 -0.020668633 -0.024364486 0.040773693 0.016681934 -0.056727607 0.08838666 -0.16082975
-0.004053828 0.064233534 0.020980982 0.0033119323 0.07015705 -0.03799746 0.007461696 0.17426077
-0.0018083035 0.016599715 -0.06122165 -0.03542692 0.003780798 -0.048043497 -0.038884036 -0.0008799603
0.029733013 -0.052003216 -0.06270966 0.042680446 0.08965558 -0.018338636 -0.011608065 -0.015331184
0.104290545 -0.108302906 -0.14797488 -0.040360056 -0.022596696 0.016262548 -0.009096945 0.08551603
0.025426637 -0.09073273 -0.040361077 0.097884685 0.06368519 0.09592418 -0.15117396 0.03908723
0.11186723 0.01683569 0.022754347 -0.20797797 -0.26498628 0.060348686 0.05368797 0.033510126
0.046866383 0.027587844 -0.020339722 -0.012991392 0.031119151 -0.031691134 -0.07803672 -0.021032339
-0.00080369454 0.114249475 0.032731522 0.17031226 0.10291553 0.045842744 0.07794874 0.020361971
0.10932393 0.10186958 -0.027897067 -0.039601758 0.08016536 -0.28088376 -0.12756279 0.07077595
-0.026558638 0.017702956 0.06796048 0.029885931 -0.053819083 0.008269714 0.086284034 0.007967054
0.13100137 0.1402385 -0.15922278 0.11068826 -0.117806464 -0.121013574 -0.2603007 -0.02204369
0.0032646111 0.025595812 0.16238053 -0.107310124 -0.077187516 -0.038481668 -0.26467112 0.1679288
0.03542389 0.057439767 -0.033240326 -0.10176304 -0.12115278 0.03307407 0.005057276 -0.0008562364
-0.0408331 -0.04861958 0.10100766 0.02354755 -0.07673106 -0.031039909 -0.07815639 -0.011378709
-0.073511325 0.006338106 -1.772397e-05 -0.000321889 0.049903933 0.020153781 0.018836994 -0.03806695
-0.022384016 0.06875299 -0.008603044 0.029933311 -0.053143244 0.0061731557 0.011927299 -0.09302591
0.011363349 0.06462134 -0.08183826 -0.04318853 0.05082797 -0.05075598 -0.06029695 0.039490454
-0.040415484 0.10687446 -0.0021613373 -0.07573964 0.027757442 0.04032886 -0.035158806 0.013906948
0.021715399 -0.024894278 -0.115652375 -0.037854392 0.14553775 0.025390899 -0.029082377 -0.12342355
-0.04493968 0.028134268 0.009637029 -0.009095173 -0.039207797 -0.08371882 0.052136034 0.09976741
0.08964771 0.175242 -0.14476551 -0.053498566 -0.19819728 -0.09225122 0.10965554 -0.91047853
0.018497063 -0.13129264 0.13639277 0.007610616 -0.04302534 0.04358454 0.012117052 -0.108932346
0.03394093 0.13531525 -0.09626183 0.08662082 0.05444036 -0.11322572 0.110064715 -0.073029034
0.038776945 -0.022061223 -0.19597808 0.038919408 -0.04561678 0.054234784 0.1848065 0.09487366
-0.04905472 -0.01914011 -0.14484096 0.011677665 0.00086376676 0.15151007 -0.06792012 -0.0046582776
-0.07021934 0.15937562 -0.27694637 0.06672229 -0.06924902 -0.19276926 -0.022478357 -0.02726972
0.0082020555 -0.03272949 0.22246324 0.13817269 0.004011517 0.05238092 -0.07646257 0.024892999
-0.08352378 -0.19019026 0.09939868 0.041870687 0.07576463 -0.1606829 0.222899 0.07818218

net.4.bias f4 [64]
00000000: 8e07 acbd c9e2 69bd ac83 9dba 1b78 b6bc
00000010: a963 04be 8e0e 2cbc 459a 0c3d 341a 033b
00000020: 285f ffbd 7fae 03bd 298d 38bd 9557 85bd
00000030: e9ab 7c3d 187d 15bd 8df3 7a3c f951 28be
00000040: b416 fc3c 0994 1bbe 2939 13be 3780 21be
00000050: e056 15be e9c3 5a3d 8ec5 733d 5c5c 18be
00000060: a971 393d c7d7 31be e376 55bc 343e 7dbc
00000070: 7797 a2bd 5b98 18bd 058a 0abe 8a40 b6bd
00000080: 0fc8 ccbc 5af4 903d 2d25 22be 5870 1ebc
00000090: 27e8 56be 40e0 4d3d 1ecf 10be f935 913d
000000a0: 0c56 cfbe dae4 16be 72a0 58bd febe 1abe
000000b0: e406 a2bd e950 48bd 5a4f e7bd 57df e23c
000000c0: c9b5 53be 615d b63c 541c 9f3b fa88 5fbd
000000d0: a596 c0bd 44ae 3fbd 7386 04bb b502 1e3c
000000e0: 6111 ad3d 4ff0 92bd fbec ab3d f960 13be
000000f0: 9111 11be 3cb1 bd3d ea82 14be 177f 02be
-0.083998784 -0.057101045 -0.0012017391 -0.022274068 -0.12928642 -0.010501517 0.03432681 0.0020004632
-0.124693215 -0.032148834 -0.045056496 -0.065108456 0.061687384 -0.03649625 0.015316856 -0.1643752
0.030772544 -0.1519319 -0.14377274 -0.15771566 -0.14583921 0.05340949 0.059514575 -0.14878982
0.04527441 -0.17367469 -0.013028833 -0.015456725 -0.07939046 -0.037254672 -0.13529213 -0.088990286
-0.02499774 0.07077856 -0.15834494 -0.0096703395 -0.20986997 0.05026269 -0.14141509 0.070903726
-0.40495336 -0.14735737 -0.052887388 -0.1511192 -0.079114705 -0.048905287 -0.11294432 0.027694387
-0.20674814 0.022261323 0.004855672 -0.05457399 -0.09403733 -0.046797052 -0.002022174 0.0096442
0.084505804 -0.071747415 0.0839481 -0.14392461 -0.14166857 0.092623204 -0.14503065 -0.12743793

net.6.weight f4 [1, 64]
00000000: 32bc e0b9 07a1 373d 06dd 86ba 64b3 8cbe
00000010: 5ff1 403d c652 5ebd b270 40bd afe6 143e
00000020: cfbf 183e 0d80 0fbe 958e 9cbd 3f2f 8b3d
00000030: ea50 08be 95bf 1f3e 39cf b23a da59 2e3d
00000040: f9eb ca3d 9b2f f93d bd68 37bd 6a51 6abe
00000050: 5e98 4b3e 7814 1e3b ec74 bcbd 251a 0cbe
00000060: ee00 5fbe 3123 63bd 9562 13be c929 583e
00000070: 5f0f 813d e13a 403e 6c5d 063e 52ad d4bd
00000080: 94dc 4bbd 0525 23bc 8285 17be 3647 a43c
00000090: 967d fb3d b36c 7b3d c252 83be c3ef b2bc
000000a0: 227a 8dbe b4fb 26be 9804 213d 3e24 4ebe
000000b0: b9e1 9b3d 3c8f 2cbe d65e 443e 8a9d 5ebd
000000c0: a5ad 013d 10ae e03d 1958 24bc 1c1a cb3d
000000d0: 1253 94be 8ca7 c53d be0c 9ebe c427 c03d
000000e0: 10c2 1c3d 6b57 b8bc b755 29be f81a d83d
000000f0: 42a8 613d 2413 373d 59fc e03c 7311 4a3e
-0.00042864826 0.044831302 -0.0010289259 -0.27480614 0.04710519 -0.054278158 -0.046982475 0.14541124
0.14916919 -0.14013691 -0.07644383 0.06796121 -0.13312116 0.15600426 0.001364208 0.042566158
0.099082895 0.12167283 -0.04477762 -0.2288262 0.19882342 0.0024121087 -0.092019886 -0.13681848
-0.21777698 -0.055453483 -0.14393075 0.2110969 0.0630176 0.1877246 0.13121575 -0.10384621
-0.049770907 -0.009957557 -0.14797023 0.020053487 0.12279813 0.06138296 -0.25649077 -0.021842843
-0.27632242 -0.16306955 0.03931102 -0.20131013 0.076114126 -0.16851515 0.19176802 -0.05434946
0.03165974 0.109707 -0.01003077 0.09917089 -0.28969628 0.09651098 -0.30869097 0.09382585
0.03827101 -0.022502622 -0.16536604 0.10552019 0.055092104 0.04469599 0.027464079 0.19733219
