examples_HF/models/double_well1d/model_double_well1d_g_GM.pth (torch, 37836 bytes, 7 tensors)

net.0.weight f4 [64, 2]
0.6688284 -0.12057623 0.18925226 0.6457694 -0.4867545 -0.09832071 -0.42895937 0.86638266
0.37614647 0.5516978 0.16195516 -0.6290321 0.12429483 0.86671716 -0.053054404 0.7637347
-0.24870305 0.043478858 -0.7630869 0.58877236 0.69160795 -0.7778017 0.028781988 0.64371425
0.6829147 0.725725 -0.32335415 -0.72035617 0.8363975 0.14381458 -0.14037478 -0.6525425
-0.7634515 0.46822554 -0.4775371 -0.0535626 0.63907474 -0.8193656 -0.5105366 -0.71151024
-0.008325812 -0.5854643 -0.42649737 -0.21721555 -0.6281829 -0.5121096 0.18486083 -0.34002015
-0.25312212 0.4360726 -0.4424093 0.2701955 -0.10306168 0.31107524 -0.68976307 -0.36275777
0.84713584 -0.3864362 -0.26253736 0.39967048 0.060383257 -0.32434064 -0.61189055 -0.16301784
-0.01688469 -0.504964 0.0016053773 0.62066895 -0.31461397 -0.52726775 0.15625547 -0.32738224
0.17958736 -0.6753382 0.33862633 0.16081618 0.09551878 -0.5393529 0.6382038 0.12643364
0.022662133 -0.1958325 0.6870868 -0.5984273 -0.58809835 -0.5608573 0.10538856 -0.5226015
-0.75222623 0.10022139 -0.27172893 -0.62531006 0.3750625 -0.6715731 0.28036785 -0.79807526
0.40936375 0.031741865 -0.11317927 0.30644402 0.2781539 0.54201674 -0.07947926 -0.24374592
-0.49928916 -0.946451 -0.7524874 0.591615 -0.309545 -0.4459428 -0.38542327 0.2954037
0.38517192 0.5394895 -0.2604216 0.16289663 -0.2948574 -0.6246658 -0.35621515 0.30405572
-0.46185187 0.30199397 -0.0067323497 0.25359234 0.6223709 0.053520758 -0.48860815 -0.18012789
00000000: 5738 2b3f acf0 f6bd 58cb 413e 2551 253f
00000010: e337 f9be 5e5c c9bd 90a0 dbbe 41cb 5d3f
00000020: 4596 c03e 113c 0d3f 93d7 253e 3f08 21bf
00000030: 4a8e fe3d 2de1 5d3f 934f 59bd 1e84 433f
00000040: 03ac 7ebe e316 323d aa59 43bf c9b9 163f
00000050: 380d 313f 031e 47bf 34c8 eb3c 75ca 243f
00000060: 7fd3 2e3f 1dc9 393f ad8e a5be 4369 38bf
00000070: 261e 563f 2144 133e 68be 0fbe 060d 27bf
00000080: 8f71 43bf 42bb ef3e be7f f4be 7564 5bbd
00000090: 679a 233f f2c1 51bf 87b2 02bf 8925 36bf
000000a0: fd68 08bc fde0 15bf dd5d dabe c16d 5ebe
000000b0: 98d0 20bf 9d19 03bf 284c 3d3e 1f17 aebe
000000c0: 3999 81be e844 df3e 7983 e2be 1157 8a3e
000000d0: 0112 d3bd 4145 9f3e 5094 30bf 63bb b9be
000000e0: e5dd 583f f7da c5be 4c6b 86be 9ca1 cc3e
000000f0: 6f54 773d fa0f a6be dca4 1cbf 26ee 26be
00000100: c351 8abc 5245 01bf 866b d23a 29e4 1e3f
00000110: 1515 a1be 05fb 06bf 6f01 203e a59e a7be
00000120: c0e5 373e f7e2 2cbf 6e60 ad3e ffac 243e
00000130: 5a9f c33d 0813 0abf 5361 233f d277 013e
00000140: f0a5 b93c 5188 48be ece4 2f3f 8832 19bf
00000150: 9d8d 16bf 5894 0fbf f5d5 d73d 36c9 05bf
00000160: e691 40bf df40 cd3d 0e20 8bbe 5214 20bf
00000170: 3108 c03e 37ec 2bbf 608c 8f3e a94e 4cbf
00000180: 2098 d13e c203 023d 88ca e7bd 3be6 9c3e
00000190: 306a 8e3e 9cc1 0a3f 06c6 a2bd 8898 79be
000001a0: d4a2 ffbe 9d4a 72bf 04a3 40bf 1574 173f
000001b0: af7c 9ebe 9d52 e4be 3356 c5be 273f 973e
000001c0: 4135 c53e fc1b 0a3f fb55 85be 60ce 263e
000001d0: 8df7 96be 19ea 1fbf d561 b6be 31ad 9b3e
000001e0: d977 ecbe f49e 9a3e 0b9b dcbb dbd6 813e
000001f0: b353 1f3f 9538 5b3d d92a fabe 7273 38be

net.0.bias f4 [64]
-0.54474163 0.123332426 0.36762804 -0.59602296 0.5173307 -0.09324551 -0.102380626 0.42505932
0.060218062 -0.23531346 0.4486355 -0.030889029 -0.30463305 -0.0082044555 -0.18905511 -0.1871258
-0.19162704 -0.079822585 -0.3108088 -0.010425636 0.32344782 -0.31932724 -0.45238483 0.19150868
0.29014012 -0.18332785 -0.538134 0.3611863 -0.08439251 0.3463588 0.22945714 -0.07072214
0.20726809 -0.5909054 -0.5488298 -0.4197166 0.75753254 0.1894601 -0.107554846 -0.1585979
-0.38158703 -0.00030243277 0.520268 0.49095517 -0.17821878 -0.444487 0.39588967 -0.41132325
0.4572548 -0.14692068 -0.16167839 0.26349857 -0.53488624 -0.27169213 0.0150010465 -0.28101
0.50701064 -0.6579795 -0.567627 0.054998044 0.08584484 -0.20650308 0.19803059 0.18707274
00000000: 3074 0bbf b695 fc3d be39 bc3e f694 18bf
00000010: c96f 043f 80f7 bebd efac d1bd 60a1 d93e
00000020: 37a7 763d 03f6 70be 8db3 e53e fd0a fdbc
00000030: ddf8 9bbe fb6b 06bc aa97 41be e89d 3fbe
00000040: e139 44be 067a a3bd 5522 9fbe 49d0 2abc
00000050: f49a a53e dc7e a3be fc9e e7be da1a 443e
00000060: 3f8d 943e 4cba 3bbe 26c3 09bf 69ed b83e
00000070: fbd5 acbd f155 b13e d0f6 6a3e c5d6 90bd
00000080: 163e 543e 9445 17bf 1c80 0cbf 18e5 d6be
00000090: a7ed 413f d401 423e b745 dcbd 7d67 22be
000000a0: 605f c3be d78f 9eb9 4930 053f 7a5e fb3e
000000b0: fc7e 36be cd93 e3be 0db2 ca3e f698 d2be
000000c0: 4d1d ea3e 6072 16be 058f 25be 49e9 863e
000000d0: 4eee 08bf 3b1b 8bbe f3c6 753c 8be0 8fbe
000000e0: 73cb 013f 5871 28bf 0150 11bf a145 613d
000000f0: 6bcf af3d 8b75 53be 88c8 4a3e ff8f 3f3e

net.2.weight f4 [64, 64]
0.10322946 0.08585581 -0.064395554 -0.0029079942 0.051201534 -0.037497368 -0.019512793 0.041889124
-0.022771338 -0.05939562 0.07323107 0.061624277 -0.055952486 -0.04475805 -0.0770102 0.034814637
0.10717987 0.12245843 -0.008292096 0.08825883 0.05594521 -0.041062556 0.05515711 0.023020612
-0.048001118 0.061459593 -0.1079813 0.11698436 0.0065742214 0.049908925 0.08075149 0.06271243
0.10978904 -0.06991181 -0.089832395 0.089380905 0.17371088 0.051712923 0.034541607 0.1351574
0.059475023 -0.09969123 -0.06352017 0.102109365 0.14913635 0.048234545 0.022490438 0.016814094
0.10299981 0.03627651 0.04408572 -0.101162545 0.053270057 0.011314187 0.0363097 -0.002074599
-0.04701088 -0.081182145 0.010732371 -0.13213204 -0.13264816 -0.058797736 -0.03205994 -0.098051384
0.018151566 0.034260172 0.106240235 0.037298776 -0.05886612 -0.15295248 -0.042365406 -0.06565548
0.26581064 -0.09603734 0.027369428 0.13352087 -0.07343494 0.14985062 0.041302994 0.11467001
-0.10224147 0.002388613 -0.21359256 0.07765004 -0.06406521 0.0012000254 -0.019415926 -0.07829333
0.24713984 0.00688316 0.09310876 -0.09345786 0.13685013 0.14048435 -0.17514959 -0.15704899
-0.078509934 0.006429437 -0.0044433763 -0.09613094 -0.056036886 -0.14317355 -0.094320126 -0.0813895
0.05468776 0.14876224 -0.054830816 -0.1495779 -0.24267112 0.04995571 -0.0009818575 -0.035673868
-0.09103916 -0.06411528 -0.08202747 0.24005471 0.021191658 -0.086407185 0.05379299 -0.14010769
-0.040378325 -0.059206575 0.14378634 0.13912202 0.03620776 -0.10444701 -0.074605055 -0.06603572
-0.08730947 -0.052505597 -0.00467395 0.009968731 -0.08165927 -0.14795376 -0.17544323 -0.09098525
0.16673015 -0.0062955716 -0.110459305 -0.17066875 -0.04156294 0.17831028 -0.16161975 0.13779183
-0.038258743 -0.10470482 -0.19835843 0.06217557 0.5095842 0.027145632 -0.04879967 0.033372626
0.118662454 0.07438614 0.023011444 0.021264149 -0.031325947 -0.08239815 -0.033895265 -0.039471813
0.2957722 -0.059929196 0.0028633364 -0.12463461 0.16623287 -0.023216836 0.0991088 -0.10602138
0.014773408 0.059607934 0.18283014 0.15038152 -0.09379053 0.039082356 0.05327035 -0.16156594
-0.100686714 -0.10179022 -0.1603829 0.12928636 0.06619522 -0.11338925 0.14979616 -0.04051212
-0.106251396 0.04241899 0.13042234 0.077736475 0.101832755 -0.08735664 -0.11881012 0.20931397
0.012403873 0.06390031 -0.16225113 -0.0453011 -0.059403706 0.061759263 0.0971575 -0.124411695
0.09630251 -0.12762593 0.07789196 -0.06969485 0.3203402 -0.13717757 0.30563495 0.1319917
-0.19045411 0.037344303 0.07385733 -0.17893185 -0.08417102 -0.095962465 0.014947293 0.052374814
-0.0809471 -0.01995221 0.0198412 0.12619123 0.2935471 0.06897007 0.05174519 -0.113420255
-0.16953568 0.15740491 -0.008695937 0.018261947 -0.05332236 -0.034542143 0.03767626 0.11267026
-0.08897639 0.3512563 0.013426553 0.065783046 -0.20280369 -0.090196885 -0.08266048 -0.06751321
-0.041691203 -0.07520816 0.21649627 -0.25444743 0.04012769 -0.17713666 -0.11344757 -0.039942894
0.06339223 -0.013892172 0.061365347 -0.069574885 -0.16937956 0.019608535 0.082325295 0.08684104
00000000: f869 d33d 2cd5 af3d d1e1 83bd 0c94 3ebb
00000010: b3b8 513d d796 19bd 4bd9 9fbc ee93 2b3d
00000020: f58a babc d248 73bd 2cfa 953d bd69 7c3d
00000030: 6f2e 65bd 3854 37bd 86b7 9dbd cb99 0e3d
00000040: 1f81 db3d 7ccb fa3d 92db 07bc 0cc1 b43d
00000050: ce26 653d 3631 28bd 6cec 613d b995 bc3c
00000060: d29c 44bd 0ebd 7b3d 4d25 ddbd 7f95 ef3d
00000070: 916c d73b 4d6d 4c3d 0a61 a53d 606f 803d
00000080: 14d9 e03d ec2d 8fbd 0cfa b7bd 560d b73d
00000090: 44e1 313e eed0 533d 807b 0d3d b466 0a3e
000000a0: 159c 733d ea2a ccbd dd16 82bd b71e d13d
000000b0: 33b7 183e 9691 453d de3d b83c b6bd 893c
000000c0: 90f1 d23d ae96 143d 3a93 343d 4f2e cfbd
000000d0: b431 5a3d 245f 393c 7bb9 143d fff5 07bb
000000e0: 7b8e 40bd d342 a6bd d4d6 2f3c 9f4d 07be
000000f0: ebd4 07be e5d5 70bd 4951 03bd 2acf c8bd
00000100: 98b2 943c 6554 0c3d 7b94 d93d 9ac6 183d
00000110: 9a1d 71bd 939f 1cbe 5987 2dbd 6176 86bd
00000120: 5518 883e 3aaf c4bd da35 e03c b2b9 083e
00000130: 0f65 96bd 7172 193e 542d 293d 1cd8 ea3d
00000140: fa63 d1bd 478a 1c3b 02b8 5abe fc06 9f3d
00000150: 9f34 83bd 2c4a 9d3a 260e 9fbc 4158 a0bd
00000160: 3a12 7d3e 228c e13b ceaf be3d d666 bfbd
00000170: 7122 0c3e 21db 0f3e 6a5a 33be 73d1 20be
00000180: d1c9 a0bd 07ae d23b be99 91bb 4ce0 c4bd
00000190: ef86 65bd 169c 12be e92a c1bd 8aaf a6bd
000001a0: 4600 603d 2155 183e 4796 60bd f32a 19be
000001b0: c77e 78be 5c9e 4c3d acb1 80ba c31e 12bd
000001c0: bd72 babd df4e 83bd 05fe a7bd e7d0 753e
000001d0: 219a ad3c 40f6 b0bd 0a56 5c3d 6478 0fbe
000001e0: be63 25bd 9882 72bd ba3c 133e 0176 0e3e
000001f0: 974e 143d 50e8 d5bd 89ca 98bd bc3d 87bd
00000200: 4fcf b2bd 1c10 57bd ef27 99bb e353 233c
00000210: fa3c a7bd 3181 17be 64a7 33be 7a56 babd
00000220: 4fbb 2a3e 154b cebb 7d38 e2bd cac3 2ebe
00000230: e73d 2abd f896 363e a67f 25be 4d19 0d3e
00000240: 33b5 1cbd 7b6f d6bd 791e 4bbe cfab 7e3d
00000250: 1c74 023f 8460 de3c 2ae2 47bd bcb1 083d
00000260: 4d05 f33d c357 983d 7f82 bc3c 2732 ae3c
00000270: a34f 00bd 5cc0 a8bd c3d5 0abd 32ad 21bd
00000280: 746f 973e 5178 75bd d0a6 3b3b 6e40 ffbd
00000290: f338 2a3e 3c31 bebc 8ef9 ca3d bd21 d9bd
000002a0: 2a0c 723c 7327 743d d337 3b3e 9dfd 193e
000002b0: 4015 c0bd d214 203d 0332 5a3d 8b71 25be
000002c0: d634 cebd 6477 d0bd 6a3b 24be a563 043e
000002d0: 5c91 873d a038 e8bd 2a64 193e 09f0 25bd
000002e0: 559a d9bd 89bf 2d3d 6f8d 053e 4d34 9f3d
000002f0: b18d d03d 0ae8 b2bd b852 f3bd 6756 563e
00000300: 9d39 4b3c 2ade 823d 2925 26be a58d 39bd
00000310: 4d51 73bd 48f7 7c3d 83fa c63d 8fcb febd
00000320: 403a c53d 5fb0 02be d285 9f3d 2cbc 8ebd
00000330: a103 a43e 4778 0cbe 2f7c 9c3e d528 073e
00000340: 6706 43be 57f6 183d 8342 973d e939 37be
00000350: db61 acbd f887 c4bd 7ee5 743c f986 563d
00000360: 98c7 a5bd d172 a3bc 038a a23c 4638 013e
00000370: ce4b 963e 2e40 8d3d c4f2 533d e148 e8bd
00000380: c39a 2dbe c12e 213e 6779 0ebc 149a 953c
00000390: 8c68 5abd 107c 0dbd 6c52 1a3d aabf e63d
000003a0: 4139 b6bd ded7 b33e 0cfb 5b3c 43b9 863d
000003b0: c5ab 4fbe 25b9 b8bd e649 a9bd 5e44 8abd
000003c0: 65c4 2abd bc06 9abd 33b1 5d3e ef46 82be
000003d0: ef5c 243d 5063 35be 3357 e8bd 299b 23bd
000003e0: c9d3 813d fe9b 63bc 3b5a 7b3d 477d 8ebd
000003f0: d671 2dbe 14a2 a03c 2a9a a83d b7d9 b13d

net.2.bias f4 [64]
-0.01662918 0.019796364 0.1401287 0.0870604 -0.009039683 -0.011215199 0.039075032 0.03318557
-0.06248256 -0.020178115 -0.07625665 -0.0493617 0.106682055 -0.12147086 -0.08937038 0.047049705
-0.08265197 0.0955205 -0.033335157 0.06664814 0.024772668 -0.10631388 0.015256026 0.10803341
0.013672769 0.08019317 0.06563475 -0.062365405 0.05872547 0.120717034 -0.10535721 0.1033834
-0.15128507 -0.16266245 0.08697019 0.15823549 -0.035728898 0.102722354 0.032696202 -0.08638673
0.009990162 -0.1091124 0.048785582 0.07175266 -0.08305422 0.07195329 -0.14585242 -0.12049731
-0.07164631 0.09886817 -0.13688941 -0.023647662 -0.04678964 -0.17639287 0.025135122 0.0037777785
0.0800525 0.115062185 -0.017935531 0.054854345 -0.030829282 0.111838974 -0.011427799 0.07464489
00000000: eb39 88bc fc2b a23c e67d 0f3e b94c b23d
00000010: 2e1b 14bc f4bf 37bc 240d 203d 98ed 073d
00000020: b6ed 7fbd 934c a5bc 722c 9cbd 7e2f 4abd
00000030: 1f7c da3d b7c5 f8bd d107 b7bd 31b7 403d
00000040: 7045 a9bd 40a0 c33d 728a 08bd d27e 883d
00000050: 0df0 ca3c 17bb d9bd 69f4 793c 9f40 dd3d
00000060: c003 603c 513c a43d 836b 863d de72 7fbd
00000070: 1e8a 703d 7e3a f73d 85c5 d7bd adba d33d
00000080: 79ea 1abe fc90 26be 6d1d b23d 7c08 223e
00000090: 7758 12bd 1960 d23d 74ec 053d 87eb b0bd
000000a0: c7ad 233c 5276 dfbd 64d3 473d 0ff3 923d
000000b0: 5518 aabd 3f5c 933d 565a 15be 4bc7 f6bd
000000c0: 4dbb 92bd 657b ca3d bd2c 0cbe beb8 c1bc
000000d0: 7ea6 3fbd 55a0 34be 2ce8 cd3c 9b94 773b
000000e0: 91f2 a33d b9a5 eb3d 89ed 92bc f3ae 603d
000000f0: b18d fcbc d50b e53d aa3b 3bbc 6cdf 983d

net.4.weight f4 [64, 64]
0.10426656 -0.14263342 -0.10747054 -0.05748575 -0.09064504 -0.0038116204 -0.005344388 -0.0042765937
-0.15127811 0.14497292 0.10044202 -4.1085616e-05 0.35042745 0.0052319705 0.05646939 -0.07533206
-0.28085938 0.19012332 -0.09538447 0.08963897 -0.09830138 -0.05027483 -0.043993715 0.013482241
0.027010439 0.060588624 -0.037308984 -0.036341164 0.0906394 0.009315193 0.026397474 0.18779232
-0.058532342 0.0006550026 0.09461286 0.06792919 -0.25956732 0.12892018 0.17187347 -0.036473617
-0.1554195 -0.091942914 -0.1327057 0.18022405 0.17465904 -0.083017536 -0.21260616 0.107152104
0.1249256 0.100389555 -0.1729748 -0.0067316033 -0.054008614 -0.1330223 0.04158955 0.12480548
0.051556703 0.16769677 -0.13499261 0.056401666 0.059662078 0.10831378 0.1388829 0.095683694
-0.0582864 -0.055593308 0.06847914 -0.06903239 0.09598759 0.0092681805 -0.09493415 -0.14156228
-0.030195734 0.065326296 -0.013823195 -0.08696678 -0.103785984 0.022602294 -0.046406798 0.06420522
0.021089217 0.14740984 -0.085372485 0.11547202 -0.0698247 -0.0378303 -0.012970099 -0.0962104
0.005924092 -0.11838694 -0.06400688 -0.105963774 0.08136111 -0.037284058 0.08534778 -0.058837842
-0.10765064 0.0673259 0.00028732055 -0.08511399 -0.030462831 -0.0017080236 -0.047831014 0.06393293
-0.041016046 0.07500725 0.0498257 0.02115809 -0.12492103 0.073019795 -0.0058644004 -0.098774806
-0.116954185 -0.099299245 -0.006787636 -0.07636243 -0.0054559256 0.0125225615 0.115009226 -0.01992225
-0.08535666 -0.097129084 -0.112133496 0.024349948 -0.004280927 -0.06335338 0.057948172 0.024525724
0.14244047 0.08076644 -0.117969215 0.057980563 0.04972247 -0.045021545 -0.011324383 -0.020911044
0.050876506 -0.03461089 -0.016258838 -0.07064399 -0.010552773 -0.05854839 -0.1341237 0.051758092
0.09449739 -0.120593905 -0.005941531 -0.09725509 0.07502243 -0.04518084 -0.04772227 0.00017401823
-0.09990446 -0.05095145 -0.028281126 -0.055391558 0.11602574 0.047012422 -0.076310836 0.03345206
-0.094943516 0.017746162 -0.08230706 0.0627647 -0.02642911 -0.006229558 -0.067333035 -0.0770492
0.06487155 -0.07424577 -0.04091713 -0.018445704 0.017257713 0.03332727 -0.035183072 0.027865825
-0.081142016 0.014183689 -0.05184666 0.10978721 0.028239401 -0.031423975 0.0012413111 0.12555668
0.023668602 -0.029200831 0.06927613 0.08534321 0.029160285 0.025930056 0.10699059 -0.09630576
-0.04024034 0.021274243 0.15377611 -0.084641986 -0.010036232 -0.04252241 0.092488 0.02700139
0.03726398 0.044103798 -0.015624944 -0.03532282 -0.068352304 0.03152907 0.10436809 0.07910904
0.014869503 -0.09410211 0.061801307 -0.018766923 -0.03478597 0.048457753 -0.011493503 -0.037596602
-0.0014894971 -0.005215248 0.109698474 0.11535073 0.12614857 0.14919488 0.05710854 0.07376876
0.05754847 0.048521914 -0.09954593 -0.117217734 0.008121881 -0.09140127 -0.03684574 -0.07339189
-0.074204214 -0.100132614 -0.049350545 -0.038408753 -0.09240988 0.04565462 -0.0972907 0.018212324
-0.01515343 0.019669982 -0.101045154 -0.0058843605 0.057597265 -0.041372683 0.031231238 0.11705644
-0.07647695 0.008183234 -0.035489477 -0.01199016 -0.08615412 0.08269771 -0.0534912 -0.044274893
00000000: b589 d53d 7f0e 12be 8419 dcbd 2e76 6bbd
00000010: 1ba4 b9bd 61cc 79bb fa1f afbb ab22 8cbb
00000020: a6e8 1abe c873 143e 8cb4 cd3d 5853 2cb8
00000030: 3a6b b33e f370 ab3b 724c 673d b247 9abd
00000040: cdcc 8fbe b0af 423e ef58 c3bd a394 b73d
00000050: 3c52 c9bd fbec 4dbd c132 34bd 9ee4 5c3c
00000060: ff44 dd3c c72b 783d 4ed1 18bd 79da 14bd
00000070: 26a1 b93d c09e 183c 843f d83c a14c 403e
00000080: 9cbf 6fbd 7bb4 2b3a 63c4 c13d 761e 8b3d
00000090: 02e6 84be a703 043e 99ff 2f3e 5c65 15bd
000000a0: 4a26 1fbe 914c bcbd 01e4 07be a78c 383e
000000b0: d2d9 323e 1905 aabd 6eb5 59be 9072 db3d
000000c0: fed8 ff3d 0a99 cd3d 4e20 31be c894 dcbb
000000d0: 2338 5dbd ff36 08be ce59 2a3d 049a ff3d
000000e0: 1f2d 533d b4b8 2b3e 813b 0abe 6f05 673d
000000f0: 3960 743d 9dd3 dd3d 5237 0e3e d0f5 c33d
00000100: b8bd 6ebd cfb5 63bd cb3e 8c3d db60 8dbd
00000110: 2495 c43d 91d9 173c d66c c2bd b4f5 10be
00000120: 0b5d f7bc cbc9 853d af7a 62bc a41b b2bd
00000130: bf8d d4bd 7228 b93c 0e15 3ebd 077e 833d
00000140: 4bc3 ac3c 9bf2 163e c5d7 aebd 987c ec3d
00000150: 4100 8fbd f2f3 1abd 8a80 54bc f509 c5bd
00000160: e31e c23b da74 f2bd 0a16 83bd 8903 d9bd
00000170: a7a0 a63d 2bb7 18bd d1ca ae3d f3ff 70bd
00000180: f077 dcbd 29e2 893d 83a3 9639 3e50 aebd
00000190: 308d f9bc c3df dfba 74ea 43bd 45ef 823d
000001a0: 7100 28bd 679d 993d 0916 4c3d bb53 ad3c
000001b0: 99d6 ffbd 678b 953d 282a c0bb 724a cabd
000001c0: ad85 efbd 675d cbbd d16a debb e863 9cbd
000001d0: 9fc7 b2bb 6e2b 4d3c f589 eb3d fd33 a3bc
000001e0: 79cf aebd 9deb c6bd 3fa6 e5bd 8b79 c73c
000001f0: 0547 8cbb 6bbf 81bd 105b 6d3d 2cea c83c
00000200: eadb 113e e068 a53d d899 f1bd 077d 6d3d
00000210: caa9 4b3d 8368 38bd e889 39bc a34d abbc
00000220: e263 503d 26c4 0dbd 4131 85bc ccad 90bd
00000230: 8ae5 2cbc 70d0 6fbd b957 09be 4b00 543d
00000240: d987 c13d f0f9 f6bd 2db1 c2bb ad2d c7bd
00000250: 5ca5 993d 8b0f 39bd 6d78 43bd aa78 3639
00000260: b69a ccbd 78b2 50bd d2ad e7bc 42e2 62bd
00000270: e79e ed3d 1990 403d db48 9cbd 0705 093d
00000280: bf71 c2bd 6660 913c 9b90 a8bd c78a 803d
00000290: dc81 d8bc 5221 ccbb e7e5 89bd f9cb 9dbd
000002a0: 60db 843d 2b0e 98bd b898 27bd 721b 97bc
000002b0: 0c60 8d3c 2d82 083d 201c 10bd df46 e43c
000002c0: c92d a6bd b462 683c 2a5d 54bd 1ed8 e03d
000002d0: 5156 e73c 6db6 00bd 7db3 a23a ee91 003e
000002e0: a8e4 c13c 9536 efbc a5e0 8d3d 6cc8 ae3d
000002f0: 8de1 ee3c 456b d43c e21d db3d f43b c5bd
00000300: 0ed3 24bd 5247 ae3c 7c77 1d3e c758 adbd
00000310: 026f 24bc fb2b 2ebd 596a bd3d 0532 dd3c
00000320: 1da2 183d 2fa6 343d c4ff 7fbc a9ae 10bd
00000330: 4bfc 8bbd a024 013d f0be d53d ec03 a23d
00000340: 379f 733c 9bb8 c0bd 5e23 7d3d 17bd 99bc
00000350: bc7b 0ebd a37b 463d 3f4f 3cbc e5fe 19bd
00000360: 3b3b c3ba ace4 aabb 98a9 e03d 013d ec3d
00000370: 172d 013e 8bc6 183e a5ea 693d 1314 973d
00000380: f2b7 6b3d eabe 463d bdde cbbd da0f f0bd
00000390: a311 053c 9730 bbbd 8feb 16bd 7d4e 96bd
000003a0: 61f8 97bd 5412 cdbd cc23 4abd 7f52 1dbd
000003b0: 6441 bdbd 5700 3b3d 5940 c7bd 0332 953c
000003c0: 1846 78bc f122 a13c c3f0 cebd 98d1 c0bb
000003d0: 1ceb 6b3d 6776 29bd a7d8 ff3c 49bb ef3d
000003e0: f29f 9cbd f912 063c 6a5d 11bd 6072 44bc
000003f0: 9271 b0bd 6b5d a93d 9719 5bbd 9759 35bd

net.4.bias f4 [64]
0.046020232 -0.06546195 0.016795816 0.07959622 -0.12992226 0.01862349 -0.044293042 -0.09169571
0.02625969 -0.034264624 0.049944375 -0.030419622 -0.100795366 -0.05233944 0.09226719 0.055724077
0.009276669 -0.08078036 -0.011468263 0.11395692 0.050318424 0.062339246 0.11214097 0.09311058
-0.09994282 0.06829761 -0.119633146 -0.18836938 -0.020166274 -0.030094413 -0.008364352 0.06912798
0.00070771144 0.018741319 0.014470491 0.034327034 0.079843886 -0.09997679 -0.09957453 0.1325634
0.007328727 -0.061630324 -0.043051124 -0.07914594 0.08025202 0.021562394 -0.101816736 0.11321289
-0.09412664 -0.048616078 -0.03158375 0.062261853 -0.11918804 0.009247398 0.034129098 -0.04115869
0.061356265 -0.035558827 0.034853835 -0.06453465 0.12642135 -0.09735132 -0.104461946 0.12001668
00000000: b67f 3c3d ea10 86bd 6197 893c 5803 a33d
00000010: 570a 05be 4a90 983c 9f6c 35bd f6ca bbbd
00000020: 901e d73c 1059 0cbd 7992 4c3d 9232 f9bc
00000030: cd6d cebd e161 56bd 95f6 bc3d ee3e 643d
00000040: 2bfd 173c 2c70 a5bd 62e5 3bbc 3f62 e93d
00000050: b11a 4e3d 7057 7f3d 2aaa e53d c3b0 be3d
00000060: d2ae ccbd 9edf 8b3d 3902 f5bd e7e3 40be
00000070: be33 a5bc 8f88 f6bc a30a 09bc f892 8d3d
00000080: b685 393a 6587 993c a315 6d3c 819a 0c3d
00000090: 3185 a33d a2c0 ccbd bbed cbbd b3be 073e
000000a0: d125 f03b 1470 7cbd 6056 30bd 4417 a2bd
000000b0: 2c5b a43d 9ea3 b03c 4b85 d0bd 29dc e73d
000000c0: 78c5 c0bd a721 47bd f65d 01bd 4906 7f3d
000000d0: dc18 f4bd 6682 173c f4ca 0b3d 0496 28bd
000000e0: b550 7b3d 22a6 11bd e5c2 0e3d be2a 84bd
000000f0: 9974 013e 2160 c7bd 25f0 d5bd 4ecb f53d

net.6.weight f4 [1, 64]
-0.093126446 -0.0011767508 0.00017806429 0.00061337237 -0.0013005516 -0.0014521986 0.0011189206 -0.0054831808
-0.080902934 0.000443433 0.11739574 0.009441129 0.047622032 0.037842378 -0.048745662 -6.327055e-05
-0.12038227 -0.0047004116 -0.115648665 0.0965552 -0.00013142789 0.0014028008 -0.039729595 -0.059593614
-0.0007213048 0.0005560129 -0.0004916892 -0.16945638 0.04880605 -0.0016055248 -0.0034945463 0.1678051
0.055424664 -0.11609647 0.0076283854 0.00074466714 -0.0045353584 -0.0005664158 -0.0024650982 -0.03193859
-0.00085137214 -0.08651645 -0.00092214864 -0.010349371 -0.0003844864 0.051492557 0.0061473283 -0.0044807163
-0.16684204 0.12791434 -0.001193873 -0.00080596114 0.08079144 0.000772122 -0.0021532387 -0.0026818991
-0.00055792404 -0.0072914753 0.003258841 0.0013993898 -0.0004910877 0.0038522817 0.07149555 -0.052708324
00000000: 14b9 bebd 343d 9aba c5b6 3a39 b9ca 203a
00000010: 4577 aaba b357 beba bfa8 923a 41ac b3bb
00000020: 70b0 a5bd 927c e839 2d6d f03d f7ae 1a3c
00000030: 520f 433d 9c00 1b3d 88a9 47bd 1eb0 84b8
00000040: fb8a f6bd e905 9abb 35d9 ecbd bcbe c53d
00000050: e8cf 09b9 2fde b73a 80bb 22bd 6f18 74bd
00000060: f215 3dba 65c1 113a b4e4 00ba f985 2dbe
00000070: dae8 473d 7970 d2ba c204 65bb 1ad5 2b3e
00000080: f904 633d fcc3 edbd 89f7 f93b c435 433a
00000090: 589d 94bb 857b 14ba 7c8d 21bb 0ad2 02bd
000000a0: 9e2e 5fba 892f b1bd 59bc 71ba 6890 29bc
000000b0: e494 c9b9 dce9 523d 876f c93b f9d2 92bb
000000c0: a4d8 2abe fafb 023e bb7b 9cba 2347 53ba
000000d0: fc75 a53d 3b68 4a3a 5a1d 0dbb cdc2 2fbb
000000e0: a641 12ba 54ed eebb 4892 553b bb6b b73a
000000f0: 56bc 00ba 9076 7c3b 426c 923d afe4 57bd
