examples_HF/models/double_well1d/model_double_well1d_g_GM_unbalanced_reg_PDE_2.pth (torch, 38088 bytes, 7 tensors)

net.0.weight f4 [64, 2]
-0.16448988 -0.7203918 0.11752825 0.69707054 0.5588251 -0.290865 0.039768077 0.23325141
-0.020818783 0.51088625 -0.15172371 -0.7046802 -0.09152566 -0.3202458 0.78266644 -0.61426014
-0.39248687 0.56075406 -0.16917509 -0.35709262 0.62996995 -1.0538691 -0.16919497 -0.44958004
0.2480472 -0.7514194 -0.3011722 -0.6988675 -0.26601762 0.9039224 0.17542009 -0.18976283
0.62855273 -0.51807284 0.37946844 0.64891744 0.0076826615 0.6126092 -0.011084399 -0.4498417
-0.110365525 -0.6084927 -0.3044929 -0.98432064 0.19941872 -0.6171815 0.050235827 0.731929
0.10690382 0.3325035 -0.6152846 -0.7929462 -0.16138531 0.18034464 -0.17841546 -0.613802
0.787604 -0.3146489 -0.020850692 0.38048485 0.20739219 -0.3811215 0.71586627 -0.10354985
-0.19287385 0.17052706 0.64554334 -0.6392397 0.16172776 0.58705914 -0.20366292 0.049645815
0.10491703 0.64490366 0.027749345 -0.50381196 0.33311385 -0.35389715 -0.092664525 -0.42395392
-0.20804262 -0.6836787 -0.071253866 -0.19095135 0.17275833 -0.5656514 -0.16886988 -0.5538373
0.5417362 -0.024506262 -0.12223944 -0.06466928 -0.35576898 -0.35470715 -0.3140757 -0.82564735
0.069468945 0.5954444 0.05253857 -0.6131288 0.07774331 -0.5706296 0.7801058 -0.3494352
-0.4337778 0.16269514 -0.39589813 -0.6910641 -0.01855337 0.27814868 0.74176955 -0.8698238
-0.2525775 -0.40558717 -0.0038840007 0.76144475 -0.24294545 -0.77523935 0.25394127 0.5367678
-0.15816602 -0.58772004 0.024534773 0.35610238 0.0004555912 -0.4021332 -0.25263944 1.0827659
00000000: 0970 28be 996b 38bf a7b2 f03d 3773 323f
00000010: 290f 0f3f 42ec 94be dae3 223d 75d9 6e3e
00000020: 278c aabc 71c9 023f 765d 1bbe ec65 34bf
00000030: ce71 bbbd 42f7 a3be d45c 483f 2740 1dbf
00000040: 0af4 c8be 948d 0f3f 3c3c 2dbe d8d4 b6be
00000050: b645 213f 2fe5 86bf 7241 2dbe 5b2f e6be
00000060: 1600 7e3e 065d 40bf 3e33 9abe fbe8 32bf
00000070: 7633 88be 7567 673f 53a1 333e 3051 42be
00000080: d5e8 203f 6ca0 04bf b049 c23e 741f 263f
00000090: d6be fb3b f5d3 1c3f 579b 35bc a751 e6be
000000a0: 5207 e2bd 2dc6 1bbf 7ee6 9bbe 70fc 7bbf
000000b0: 6c34 4c3e 9bff 1dbf 15c4 4d3d b35f 3b3f
000000c0: 64f0 da3d e63d aa3e 4b83 1dbf 86fe 4abf
000000d0: 3142 25be 44ac 383e 8bb2 36be 2122 1dbf
000000e0: 6aa0 493f a919 a1be 12cf aabc e9ce c23e
000000f0: 9e5e 543e 5b22 c3be 0343 373f f211 d4bd
00000100: b980 45be a59e 2e3e 5442 253f 37a5 23bf
00000110: f69b 253e 8249 163f 038d 50be 6959 4b3d
00000120: bdde d63d 6818 253f 9852 e33c d2f9 00bf
00000130: e68d aa3e 0232 b5be e6c6 bdbd 7d10 d9be
00000140: 2009 55be 9105 2fbf 8ced 91bd c088 43be
00000150: 8fe7 303e 88ce 10bf 3aec 2cbe 48c8 0dbf
00000160: 39af 0a3f 5bc1 c8bc ac58 fabd 5471 84bd
00000170: 5a27 b6be 2d9c b5be 88ce a0be a05d 53bf
00000180: bc45 8e3d 0b6f 183f af32 573d 02f6 1cbf
00000190: e237 9f3d c814 12bf 04b5 473f 2ce9 b2be
000001a0: 2018 debe 8e99 263e 29b3 cabe 94e9 30bf
000001b0: 3dfd 97bc 8169 8e3e 9ce4 3d3f c6ac 5ebf
000001c0: d751 81be 1fa9 cfbe b88a 7ebb 0bee 423f
000001d0: b1c6 78be 1676 46bf 9704 823e 9d69 093f
000001e0: 46f6 21be d274 16bf 26fd c83c 0d53 b63e
000001f0: 6adc ee39 67e4 cdbe f559 81be 1398 8a3f

net.0.bias f4 [64]
-0.1433221 -0.2648363 -0.46012482 -0.29893762 -0.4457401 -0.08668459 0.0415517 -0.61323303
0.013251192 0.26498017 -0.5773221 -0.5648776 -0.41290662 -0.07048784 0.39138144 0.04013459
0.35441932 0.2790049 -0.57514143 -0.15755917 0.018876495 0.14320646 -0.36334074 0.36029586
-0.48521367 -0.33119085 -0.6394587 -0.30295363 0.2182197 -0.3745323 0.2814095 -0.065774634
-0.69605696 -0.5711419 -0.2179048 -0.7322989 -0.2555399 0.22184354 0.21822642 -0.076305486
0.09253356 -0.2952096 -0.31732515 -0.303378 -0.48901066 -0.5164744 -0.33770686 -0.7256836
-0.33517092 0.38244772 0.5641754 -0.64766645 0.5565108 -0.20481242 -0.2982599 -0.5542572
-0.20895633 0.29224712 0.11139377 -0.27814722 -0.23639984 -0.34378836 0.39645934 -0.09368687
00000000: 07c3 12be a098 87be 7b95 ebbe 5a0e 99be
00000010: 0c38 e4be b187 b1bd 1e32 2a3d d7fc 1cbf
00000020: 871b 593c 7bab 873e 62cb 13bf d29b 10bf
00000030: 7f68 d3be ee5b 90bd 2663 c83e 2b64 243d
00000040: 7376 b53e bbd9 8e3e 783c 13bf 3157 21be
00000050: e1a2 9a3c b7a4 123e cc07 babe b378 b83e
00000060: ed6d f8be d991 a9be 91b3 23bf bd1c 9bbe
00000070: fc74 5f3e b3c2 bfbe e814 903e dab4 86bd
00000080: ca30 32bf 5b36 12bf 7022 5fbe f177 3bbf
00000090: 20d6 82be f42a 633e bf76 5f3e 0d46 9cbd
000000a0: 3c82 bd3d b625 97be 7178 a2be 5c54 9bbe
000000b0: 9b5f fabe ab37 04bf eae7 acbe 67c6 39bf
000000c0: 869b abbe 30d0 c33e cd6d 103f 78cd 25bf
000000d0: 7e77 0e3f 59ba 51be 86b5 98be cde3 0dbf
000000e0: a6f8 55be 6aa1 953e 6b22 e43d 5069 8ebe
000000f0: cd12 72be 0705 b0be b8fc ca3e e7de bfbd

net.2.weight f4 [64, 64]
0.5509016 -0.23325118 0.13628772 0.15839137 0.5663613 0.4264073 -0.075435854 0.10852068
0.07346585 0.086515665 0.09138762 0.36944044 0.13722226 0.13413401 -0.051246747 0.00415523
0.105172545 -0.101243764 0.23947065 0.07666975 0.498343 0.15560207 0.04653779 -0.18350673
-0.008393576 0.19732016 0.34929612 0.5675594 -0.014131427 0.54751843 -0.007952014 0.04621835
0.12669434 0.018842006 -0.05128811 0.5860341 -0.3518382 -0.22793615 -0.077216655 0.33781773
0.0043063695 0.3293874 0.056217678 0.60814 0.07062887 0.569085 0.25290275 0.9177215
0.03552753 -0.22511192 -0.18861878 -0.008998464 0.0062627913 0.21181665 0.53267926 0.07623574
0.17698899 -0.11959379 0.1160262 -0.06989171 0.6719868 0.02612068 -0.44658017 0.028889209
0.04306151 0.07834363 -0.09542099 0.15256673 -0.04593333 0.06172097 -0.12715833 -0.18899316
-0.08406239 -0.028850337 0.08414984 -0.035096932 -0.111156955 -0.07585015 -0.11512453 0.1380866
0.07947334 0.16162845 0.071339466 -0.10760104 -0.037768103 -0.016236149 -0.02515588 0.120159596
0.12551323 -0.00888599 0.008246193 -0.027562551 0.089858614 -0.037404437 -0.013825787 0.119442135
0.017479772 0.17258729 0.12913276 -0.062638186 0.103595726 0.021419536 0.07905592 -0.03978718
-0.059859015 -0.09552205 -0.10758499 0.055152494 0.16694263 -0.07081279 0.043892033 0.09681973
-0.0107984785 -0.19004953 -0.14056085 -0.0034429368 -0.09377646 -0.041825276 0.065107755 -0.2676884
-0.014599282 0.0033788376 -0.0049317987 0.13056967 0.07833396 -0.004918546 -0.037917603 0.025380578
0.5953916 -1.1377581 -0.023016905 0.018795865 -0.1764125 1.1295416 0.22392957 0.07742352
-0.078103185 0.14047983 -0.21014467 0.17804277 0.046288002 0.3033437 -0.0795641 0.08828614
0.14477392 -0.18019596 -0.26011115 0.16412838 0.81782573 0.84241337 0.13005996 -0.2351976
-0.10817059 0.12858778 -0.021337379 0.51369154 -0.002426666 -0.11726736 0.031348836 -0.009340309
-0.07815555 -0.2430776 -0.25180745 0.030873159 -1.7288154 0.15067145 0.08076408 0.17473403
0.1467793 0.054869946 0.12583838 0.4008001 -0.031543143 -0.0056896354 0.14168414 0.36004388
-0.72362804 0.15268064 0.029581761 -0.078419715 0.00033483372 0.37640908 -0.17873248 0.10720605
0.09469767 -0.1497562 1.0349805 -0.08831611 0.5210864 -0.06083865 0.36413234 0.008300693
-0.062249966 0.31549045 -0.09205646 -0.10710099 0.09743997 -0.102651455 0.037048656 -0.03180049
0.20821735 0.042962134 -0.10278877 -0.023274941 -0.15680084 0.12920184 0.26578912 -0.11098567
-0.041820716 0.005991716 0.076420724 -0.16907953 0.005140107 0.20236975 -0.22535494 0.2347971
-0.14868999 0.113912225 -0.04136166 -0.07257263 0.05105676 0.015639707 -0.037372176 0.10382951
0.07940886 -0.01415642 0.026136385 0.058072276 0.19401008 -0.1341901 -0.053796824 0.07724326
0.088380195 -0.08846515 -0.25319973 -0.06988836 -0.09684889 -0.008643901 0.14219779 -0.08454146
0.0344748 -0.270213 -0.1269784 0.0064848755 0.15610668 0.10976999 0.14711405 0.023451844
0.062165353 0.28147897 0.03313606 -0.023732757 -0.14729297 -0.1345369 -0.14702484 0.28732142
00000000: e307 0d3f 66d9 6ebe 028f 0b3e 5931 223e
00000010: 0efd 103f 0f52 da3e 1d7e 9abd 1740 de3d
00000020: 4375 963d 202f b13d 6f29 bb3d 4c27 bd3e
00000030: fe83 0c3e 6d5a 093e 1ce8 51bd 9828 883b
00000040: b464 d73d e458 cfbd cb37 753e 0805 9d3d
00000050: d026 ff3e 2656 1f3e 699e 3e3d 30e9 3bbe
00000060: 3685 09bc 4c0e 4a3e f1d6 b23e 934b 113f
00000070: 8087 67bc 2b2a 0c3f 2a49 02bc 744f 3d3d
00000080: 29bc 013e 8d5a 9a3c 7b13 52bd 5506 163f
00000090: 2324 b4be 1868 69be c423 9ebd 72f6 ac3e
000000a0: 721c 8d3b 77a5 a83e 8244 663d 10af 1b3f
000000b0: dea5 903d 8eaf 113f 787c 813e ccef 6a3f
000000c0: 5185 113d bd83 66be 4825 41be 4b6e 13bc
000000d0: 1a38 cd3b 77e6 583e ab5d 083f 7c21 9c3d
000000e0: 9a3c 353e 97ed f4bd 259f ed3d 6323 8fbd
000000f0: 5407 2c3f 09fb d53c 28a6 e4be 10a9 ec3c
00000100: 4461 303d a072 a03d 146c c3bd 743a 1c3e
00000110: 9624 3cbd 21cf 7c3d cb35 02be 6c87 41be
00000120: e728 acbd 8b57 ecbc c056 ac3d cdc1 0fbd
00000130: 42a6 e3bd 5357 9bbd 69c6 ebbd 9366 0d3e
00000140: ebc2 a23d ee81 253e 6d1a 923d ef5d dcbd
00000150: bab2 1abd ac01 85bc b413 cebc 3c16 f63d
00000160: 8a86 003e 8b96 11bc 0a1b 073c dcca e1bc
00000170: cb07 b83d 6535 19bd 8e85 62bc 149e f43d
00000180: bd31 8f3c b9ba 303e 613b 043e 7348 80bd
00000190: ff29 d43d 0678 af3c 12e8 a13d e2f7 22bd
000001a0: ba2e 75bd 11a1 c3bd 8555 dcbd 95e7 613d
000001b0: 02f3 2a3e 4c06 91bd 22c8 333d 6c49 c63d
000001c0: 1aec 30bc 589c 42be 2fef 0fbe e5a2 61bb
000001d0: df0d c0bd fb50 2bbd 3757 853d 740e 89be
000001e0: d431 6fbc 7d6f 5d3b ed9a a1bb 0eb4 053e
000001f0: 8e6d a03d c12b a1bb 7d4f 1bbd eeea cf3c
00000200: 956b 183f 0fa2 91bf f38d bcbc c9f9 993c
00000210: 7aa5 34be d294 903f cb4d 653e 3990 9e3d
00000220: 90f4 9fbd f2d9 0f3e 2a30 57be d850 363e
00000230: 7d98 3d3d de4f 9b3e 81f2 a2bd 5dcf b43d
00000240: 9d3f 143e 4a85 38be 4a2d 85be 4511 283e
00000250: 075d 513f 67a8 573f 702e 053e a4d7 70be
00000260: 8b88 ddbd 84ac 033e bacb aebc 4a81 033f
00000270: b308 1fbb df29 f0bd a367 003d 1808 19bc
00000280: 0410 a0bd 56e9 78be e8ec 80be b5e9 fc3c
00000290: d349 ddbf 9e49 1a3e a367 a53d 7aed 323e
000002a0: 504d 163e 4fbf 603d c7db 003e ac35 cd3e
000002b0: 6233 01bd 1f70 babb a615 113e ac57 b83e
000002c0: b03f 39bf 5058 1c3e 7355 f23c 849a a0bd
000002d0: 9f8c af39 b1b8 c03e a605 37be d88e db3d
000002e0: daf0 c13d b059 19be 3e7a 843f 14df b4bd
000002f0: eb65 053f f331 79bd 8e6f ba3e a1ff 073c
00000300: d2f9 7ebd f787 a13e 1988 bcbd c457 dbbd
00000310: 9b8e c73d ed3a d2bd 55c0 173d 3b41 02bd
00000320: ee36 553e 10f9 2f3d eb82 d2bd 17ab bebc
00000330: 6690 20be 7d4d 043e 8315 883e 744c e3bd
00000340: 334c 2bbd 2856 c43b 7882 9c3d 2f23 2dbe
00000350: 586e a83b 043a 4f3e 72c3 66be a76e 703e
00000360: 3042 18be d04a e93d d86a 29bd f6a0 94bd
00000370: e520 513d d81e 803c 9113 19bd 91a4 d43d
00000380: 1da1 a23d 54f0 67bc f91b d63c 32dd 6d3d
00000390: 94aa 463e 2169 09be 0f5a 5cbd b731 9e3d
000003a0: ad00 b53d 372d b5bd 65a3 81be a121 8fbd
000003b0: b658 c6bd 269f 0dbc 4c9c 113e 1324 adbd
000003c0: 7335 0d3d 5c59 8abe a006 02be 147f d43b
000003d0: 6eda 1f3e 17cf e03d 11a5 163e 151e c03c
000003e0: 19a1 7e3d 031e 903e adb9 073d 336b c2bc
000003f0: f8d3 16be 0bc4 09be ae8d 16be cb1b 933e

net.2.bias f4 [64]
-0.12415555 -0.0076573174 -0.027345166 0.06504218 -0.15450116 -0.32575786 0.08394878 -0.07112053
-0.09763082 -0.17275944 -0.0363356 -0.18106511 -0.2357937 -0.18110263 -0.24208635 -0.1153618
0.0069794203 -0.34378654 0.021467729 -0.21603544 -0.20644161 0.025348702 -0.29002059 -0.14473899
-0.55906147 -0.16185583 0.1166114 0.025768872 -0.31062362 0.05490424 -0.06724552 -0.18426748
-0.054681376 0.0863109 -0.075945385 0.037493292 -0.18611316 -0.28958237 -0.08560397 -0.3037151
-0.056974716 -0.05579962 -0.10439949 -0.15316823 -0.057676885 0.0349402 -0.043630965 -0.24915361
-0.03742245 -0.108622074 -0.0040687528 -0.118588865 -0.2533649 0.061752137 -0.28751883 0.03234104
-0.220869 0.09121052 0.1592802 -0.19920354 0.08010167 -0.0849034 -0.1723875 0.017119491
00000000: 4445 febd 3cea fabb f802 e0bc d634 853d
00000010: 8d35 1ebe bcc9 a6be 57ed ab3d a4a7 91bd
00000020: abf2 c7bd dae7 30be a3d4 14bd 2269 39be
00000030: e773 71be f872 39be 7ce5 77be cf42 ecbd
00000040: 9fb3 e43b ca04 b0be 17dd af3c 6538 5dbe
00000050: 6e65 53be 15a8 cf3c 947d 94be 7536 14be
00000060: a71e 0fbf 89bd 25be f5d1 ee3d 3e19 d33c
00000070: 0f0a 9fbe 45e3 603d 05b8 89bd 9db0 3cbe
00000080: 94f9 5fbd c5c3 b03d 4189 9bbd 9192 193d
00000090: 7394 3ebe 2444 94be 2251 afbd 8c80 9bbe
000000a0: 525e 69bd 248e 64bd 66cf d5bd 22d8 1cbe
000000b0: 993e 6cbd 751d 0f3d 62b6 32bd 2022 7fbe
000000c0: 4848 19bd 4075 debd 2c53 85bb b8de f2bd
000000d0: 0bb9 81be cfef 7c3d ab35 93be 0a78 043d
000000e0: 7c2b 62be 95cc ba3d 591a 233e 03fc 4bbe
000000f0: 580c a43d d5e1 adbd 5986 30be 2d3e 8c3c

net.4.weight f4 [64, 64]
-0.055856626 0.10533722 -0.23169944 0.33814642 0.04898562 0.02291498 -0.03572644 -0.013039483
-0.11344539 0.02010033 0.14031295 0.114285596 -0.026838733 0.06475765 0.08941752 -0.52031404
0.00078681775 0.063095376 0.008925321 -0.07074482 0.094098665 -0.21915585 0.13303868 -0.08576359
0.023735464 0.17473789 0.11858909 0.30517608 -0.0007727386 -0.12766294 -0.12101339 -0.10183217
0.076374024 -0.122698456 -0.026272168 0.024532087 -0.041840006 -0.025805993 -0.11457212 -0.03460473
-0.9115845 0.04090136 -0.111851566 -0.020366222 -0.0027112865 0.056807317 -0.030692697 -0.063657224
0.08800495 -0.16151485 0.22054817 -0.03147418 0.13884492 0.045797084 0.006522097 0.347049
0.04200988 0.07378428 -0.005680967 0.13144551 0.21057895 0.049721222 0.0050080814 0.031272374
0.1449237 -0.3241762 0.00888372 -0.18151332 -0.47779 -0.029659715 0.042151656 -0.042105824
-0.022561546 0.025674831 -0.057439644 0.12053617 0.20079398 0.07862031 0.05936075 -0.090293854
-0.12241727 0.078206465 0.07519477 0.06456112 0.069376625 0.14743014 0.09579505 0.09987991
0.064528294 0.11838562 5.926733e-06 -0.049464058 0.1589089 0.2560236 -0.06107552 -0.0015351597
0.038198568 -0.06500591 0.058621626 -0.026034646 -0.033683024 0.04752535 -0.20325176 0.13595875
-1.3371345 -0.015286675 0.07973148 -0.0691374 0.082910344 0.037961777 0.11662387 -0.032289825
-0.034065295 -0.019111509 -0.31190807 0.120065935 0.053358104 -0.11042041 0.061501123 -0.16595998
0.099778324 -0.103776716 0.00069348933 0.1292078 -0.047969025 -0.014877008 0.051351275 0.034988623
-0.028274266 0.0063667167 0.04653284 -0.13394484 0.028796319 0.06523527 0.04010825 0.12095844
0.06265451 0.08391969 0.0063253343 0.056971975 0.07127662 0.0791836 0.027340343 -0.011819758
0.07448017 0.043485254 0.023407908 -0.121484876 -0.08085185 0.048701458 -0.06764601 0.020934664
0.025352111 0.055052 -0.033302337 -0.06957909 0.061941523 0.11074124 -0.020300156 -0.012692149
-0.01129358 -0.046031117 0.06469021 0.09031295 -0.08156929 -0.033536587 -0.09552379 0.049540285
0.022099983 -0.06724015 0.13515073 0.090247884 0.074437544 0.011247653 0.032140173 0.061495967
0.0007855877 0.07248302 -0.086051956 0.07993664 0.013236926 -0.12583695 0.11824698 -0.11507513
-0.06978342 0.061943837 -0.005134551 0.031502135 0.018858345 0.018972373 -0.07256013 0.15428685
0.015601808 -0.3041768 -0.031677328 -0.061257143 -0.40796855 0.03289966 0.05133248 -0.043538112
-0.019875564 -0.012548295 -0.002677398 0.16551612 0.056201506 0.042086378 0.11463359 -0.09445893
-0.25759432 0.093289904 -0.06450293 0.061116256 0.09079034 0.11215814 0.049672104 0.15737504
0.09935427 0.18707474 -0.07367775 0.026752207 0.13478228 0.22321501 -0.040710118 0.0051635434
0.10183005 -0.07518406 0.10176407 0.030915663 -0.013731045 0.035940964 -0.12404907 0.05481284
-1.5403913 -0.030953232 0.11519756 0.019169385 0.07058274 -0.05184882 0.050453015 0.004115953
0.0503386 0.07693117 -0.2737839 0.22136126 0.08862409 -0.085391246 -0.045343745 -0.10083052
0.10235806 -0.04350287 -0.02562181 -0.016593201 -0.0074126627 0.020268252 0.08766296 0.11982244
00000000: ebc9 64bd 0abb d73d 9e42 6dbe 8721 ad3e
00000010: 25a5 483d 32b8 bb3c e355 12bd 8ea3 55bc
00000020: 0e56 e8bd 72a9 a43c 33ae 0f3e 910e ea3d
00000030: e7dc dbbc a99f 843d 8820 b73d 4d33 05bf
00000040: 7242 4e3a 2638 813d 823b 123c a9e2 90bd
00000050: cdb6 c03d 646a 60be 4b3b 083e d2a4 afbd
00000060: e070 c23c 7dee 323e d6de f23d 0a40 9c3e
00000070: 9c91 4aba 13ba 02be ded5 f7bd 628d d0bd
00000080: fc69 9c3d 5449 fbbd bb38 d7bc 84f7 c83c
00000090: 6d60 2bbd 1767 d3bc caa4 eabd b0bd 0dbd
000000a0: 9a5d 69bf 2f88 273d 6f12 e5bd 10d7 a6bc
000000b0: d7af 31bb caae 683d 406f fbbc b85e 82bd
000000c0: f03b b43d 2664 25be 61d7 613e 12eb 00bd
000000d0: 5d2d 0e3e b995 3b3d 51b7 d53b 68b0 b13e
000000e0: 8d12 2c3d 361c 973d 6827 babb a799 063e
000000f0: 02a2 573e 7ba8 4b3d d51a a43b 7617 003d
00000100: e166 143e 6cfa a5be 068d 113c a1de 39be
00000110: e4a0 f4be eef8 f2bc 37a7 2c3d 2877 2cbd
00000120: fed2 b8bc 0654 d23c d545 6bbd abdb f63d
00000130: f09c 4d3e af03 a13d 4224 733d fceb b8bd
00000140: e8b5 fabd b62a a03d b7ff 993d 9f38 843d
00000150: 5515 8e3d edf7 163e 3230 c43d d78d cc3d
00000160: 6927 843d 2974 f23d 40de c636 d39a 4abd
00000170: 04b9 223e 8615 833e 532a 7abd 6937 c9ba
00000180: 1a76 1c3d d221 85bd 3b1d 703d 9c46 d5bc
00000190: 36f7 09bd f1a9 423d 3b21 50be c538 0b3e
000001a0: 3927 abbf f674 7abc 424a a33d e997 8dbd
000001b0: e6cc a93d cf7d 1b3d 7fd8 ee3d 5642 04bd
000001c0: 0d88 0bbd bd8f 9cbc 6ab2 9fbe 21e5 f53d
000001d0: 078e 5a3d 1924 e2bd 9ae8 7b3d 6af1 29be
000001e0: 9458 cc3d e388 d4bd 48cb 353a 0d4f 043e
000001f0: 2b7b 44bd b2be 73bc b755 523d 3b50 0f3d
00000200: 6f9f e7bc e49f d03b 3899 3e3d d628 09be
00000210: 42e6 eb3c 129a 853d 8c48 243d 0fb9 f73d
00000220: 0251 803d 16de ab3d c044 cf3b 725b 693d
00000230: 7af9 913d 032b a23d dbf8 df3c a9a7 41bc
00000240: 0f89 983d 981d 323d f1c1 bf3c 10cd f8bd
00000250: a895 a5bd 2e7b 473d fe89 8abd 2c7f ab3c
00000260: 3baf cf3c 357e 613d 0868 08bd 7b7f 8ebd
00000270: 65b6 7d3d 4ecc e23d 834c a6bc bbf2 4fbc
00000280: b508 39bc 208b 3cbd 4d7c 843d fff5 b83d
00000290: cd0d a7bd a95d 09bd faa1 c3bd c1ea 4a3d
000002a0: 060b b53c 34b5 89bd f464 0a3e e2d3 b83d
000002b0: b672 983d 1348 383c 6aa5 033d 32e3 7b3d
000002c0: e6ef 4d3a fa71 943d 023c b0bd d2b5 a33d
000002d0: b1df 583c 67db 00be 792b f23d 82ac ebbd
000002e0: 9cea 8ebd d2b8 7d3d bc3f a8bb 6208 013d
000002f0: d17c 9a3c f36b 9b3c 689a 94bd 5ffd 1d3e
00000300: ba9e 7f3c 10bd 9bbe 16c0 01bd c5e8 7abd
00000310: 41e1 d0be cbc1 063d 0242 523d 0555 32bd
00000320: 14d2 a2bc 5d97 4dbc 4977 2fbb 0f7d 293e
00000330: 8d33 663d c462 2c3d 04c5 ea3d af73 c1bd
00000340: 67e3 83be c70e bf3d 1d1a 84bd 0a55 7a3d
00000350: 49f0 b93d 2bb3 e53d fa74 4b3d ec26 213e
00000360: 407a cb3d 8590 3f3e 5ce4 96bd 7227 db3c
00000370: 5e04 0a3e 7a92 643e a7bf 26bd f132 a93b
00000380: 468c d03d 1afa 99bd ae69 d03d d842 fd3c
00000390: 2df8 60bc d536 133d 700d febd 6e83 603d
000003a0: 8b2b c5bf a291 fdbc b3ec eb3d 1d09 9d3c
000003b0: af8d 903d 6e5f 54bd d2a7 4e3d 1edf 863b
000003c0: d92f 4e3d 178e 9d3d 672d 8cbe 87ac 623e
000003d0: 8c80 b53d 9be1 aebd 5dba 39bd 3b80 cebd
000003e0: 1aa1 d13d 1130 32bd d5e4 d1bc 77ee 87bc
000003f0: ece5 f2bb 9b09 a63c a388 b33d 7865 f53d

net.4.bias f4 [64]
-0.033911057 -0.0902213 0.034284838 -0.07632757 -0.1531656 -0.06776988 -0.033879083 -0.055710256
-0.0030064734 -0.03038166 -0.11080573 -0.2829535 -0.15630277 -0.22564118 0.049060386 -0.07261343
-0.08826592 -0.15577963 -0.09093134 -0.1604274 0.020873185 -0.10046033 -0.11353239 -0.20348632
-0.194118 -0.14489627 -0.12926647 -0.08437175 -0.28891906 0.033790864 -0.19756225 -0.035950575
-0.040152855 -0.09067644 0.0030406704 0.024855226 -0.08258859 -0.09688955 -0.070507154 -0.05894096
0.03138429 -0.08488486 -0.08068571 -0.14865828 -0.18765345 -0.0963102 -0.12846051 -0.1549003
-0.21199979 -0.06603049 0.01659115 -0.010310932 -0.22251028 -0.12835714 -0.037281934 -0.04178184
-0.015437554 -0.15874961 -0.04598245 -0.120438345 0.040238116 -0.046239074 0.04921303 0.01586566
00000000: 52e6 0abd f2c5 b8bd 426e 0c3d a151 9cbd
00000010: 71d7 1cbe efca 8abd cbc4 0abd 7030 64bd
00000020: 4108 45bb f6e2 f8bc 1dee e2bd 48df 90be
00000030: d50d 20be 7b0e 67be 8bf3 483d 5ab6 94bd
00000040: c3c4 b4bd b284 1fbe 363a babd 1547 24be
00000050: 3efe aa3c 25be cdbd ab83 e8bd b85e 50be
00000060: dec6 46be b05f 14be 6e5e 04be 19cb acbd
00000070: 33ed 93be 4a68 0a3d c24d 4abe e940 13bd
00000080: 5277 24bd 92b4 b9bd fc45 473b 309d cb3c
00000090: 3524 a9bd 076e c6bd 0e66 90bd 136c 71bd
000000a0: d08c 003d 1dd8 adbd 8d3e a5bd e039 18be
000000b0: 3a28 40be 483e c5bd 278b 03be 2f9e 1ebe
000000c0: 7916 59be fe3a 87bd 2aea 873c 2fef 28bc
000000d0: bcd9 63be 0e70 03be f1b4 18bd 6f23 2bbd
000000e0: cbed 7cbc 428f 22be 1858 3cbd 61a8 f6bd
000000f0: b9d0 243d 2f65 3dbd 9a93 493d b3f8 813c

net.6.weight f4 [1, 64]
0.23191051 0.24862799 0.037034065 0.23213674 0.032084707 0.29506895 -0.0015984761 -0.010604938
-0.031100888 0.027327234 0.06433767 -0.35177004 0.038315885 0.104694165 -0.02993038 0.086183615
-0.021492178 -0.2536185 0.034669705 0.08714773 0.00039914445 0.08497532 -0.077095464 0.074569784
-0.10767521 0.136919 -0.07836834 0.23864627 0.05778967 -0.026373826 -0.14589022 0.12652701
0.24697568 -0.17008899 0.0012720859 -0.021048144 0.1494589 0.088442326 -0.12640303 -0.0032725723
0.11805988 0.18810587 -0.11834004 0.08060233 0.06441508 -0.1065818 0.11872686 0.10671028
-0.16150226 0.35276437 -6.1635074e-06 -0.010538026 -0.11311542 0.12217123 0.063581005 0.0008932222
0.026876492 -0.11398415 0.117669374 -0.10539737 0.30512407 0.11280379 -0.03398236 -0.028535204
00000000: f379 6d3e 5698 7e3e 08b1 173d 41b5 6d3e
00000010: 416b 033d 4713 973e f583 d1ba 55c0 2dbc
00000020: 4ac7 febc 5ddd df3c 78c3 833d 341b b4be
00000030: 1ef1 1c3d e569 d63d 8e30 f5bc 0981 b03d
00000040: 5d10 b0bc 49da 81be d201 0e3d 827a b23d
00000050: 4344 d139 8a07 ae3d 3ae4 9dbd 0bb8 983d
00000060: d284 dcbd 7f34 0c3e 957f a0bd b05f 743e
00000070: dcb4 6c3d ec0d d8bc 3f64 15be 4c90 013e
00000080: 31e7 7c3e cf2b 2ebe 1fbc a63a 286d acbc
00000090: c10b 193e 4021 b53d cc6f 01be a778 56bb
000000a0: 61c9 f13d d39e 403e 435c f2bd d612 a53d
000000b0: 0eec 833d 8f47 dabd 1127 f33d eb8a da3d
000000c0: d960 25be 889d b43e 20d0 ceb6 afa7 2cbc
000000d0: 0fa9 e7bd e934 fa3d c236 823d 2127 6a3a
000000e0: 172c dc3c 8670 e9bd a4fc f03d 94da d7bd
000000f0: 3939 9c3e ac05 e73d 1631 0bbd a9c2 e9bc
