examples_HF/models/double_well1d/model_double_well1d_g_GM_unbalanced.pth (torch, 37968 bytes, 7 tensors)

net.0.weight f4 [64, 2]
000000 d4 d3 11 bf 28 e5 9a be bf cb 8d be 43 d9 dd be
       -0.5696385 -0.30252957 -0.27694508 -0.4332982
000010 e9 a9 09 be 0b af b1 bb c5 02 dd 39 98 1e f1 39
       -0.13443722 -0.005422478 0.00042154468 0.00045989896
000020 4f a9 2c 3f e7 ad fd be 47 75 1f 3f 6e 25 10 bf
       0.67445844 -0.4954674 0.62288326 -0.56307113
000030 4f 43 29 bf 86 5b 74 be d5 29 a1 3e de 14 3a 3f
       -0.6611833 -0.23863038 0.31477228 0.7268809
000040 ae cf 70 3c 4e 9d cc be b4 5a ba 3e 6c 2b a1 be
       0.014697952 -0.39963764 0.36397326 -0.3147844
000050 a5 14 5b be a3 3b 1f bf 96 5c 8a 3e ea c6 8b 3e
       -0.21394594 -0.62200373 0.27023762 0.27300197
000060 76 57 11 bc 7e cb 69 3e af e0 7b 3e bc f9 2b bf
       -0.00887095 0.22831532 0.24597429 -0.6717794
000070 4c 89 4d be c2 b9 2b bf 9e dd f6 be e7 9a e0 be
       -0.20071906 -0.6708032 -0.48215955 -0.4386818
000080 27 00 3f bf 0a 16 17 bf a4 41 23 3f bb ba de bc
       -0.7460961 -0.59018004 0.63772035 -0.02718865
000090 55 22 93 3e 62 86 b0 be 30 ee 80 3c 60 c7 3d bf
       0.2873713 -0.34477526 0.015738577 -0.7413235
0000a0 cd c7 10 bf 93 cd 96 3e 51 d9 c7 bc 0c 35 df 3d
       -0.5655487 0.29453716 -0.024395617 0.1089879
0000b0 ad fd 22 3e 6b 79 23 3f 30 f3 61 bd ae 38 6e 3c
       0.15917082 0.63857144 -0.055163562 0.014539881
0000c0 82 d3 e8 be 33 a0 3b 3e 0e b8 15 3f 28 7a f1 be
       -0.45473868 0.1832283 0.5848397 -0.4716351
0000d0 02 05 cb 3d e0 59 dd 3d 8f 98 2d ba 53 db 18 3e
       0.099130645 0.10808158 -0.0006622159 0.14927416
0000e0 e3 8e 68 bd 4d ab 15 bf c4 e3 b4 bb 97 7f 30 bf
       -0.056776892 -0.5846451 -0.005520316 -0.68944687
0000f0 2b 83 35 bf ee a8 87 be 64 87 00 3f ee 98 3a 3e
       -0.7090327 -0.2649607 0.5020659 0.182224
000100 cd cc ae 3b 49 ed 20 3f 14 89 37 bd 24 4c 50 bf
       0.0053344727 0.6286207 -0.044808462 -0.8136618
000110 b3 6f 03 be 1a b2 5a 3f bf c1 da 3e c7 68 a8 3e
       -0.12835579 0.8542801 0.42725942 0.3289244
000120 e7 52 89 be 57 90 31 bf f1 c9 90 3e 07 2a 67 3f
       -0.26821062 -0.6936087 0.2827907 0.90298504
000130 6c 8f cf be 9a 4c ec 3e 10 6f 1d be d7 ec 51 3f
       -0.4053911 0.46152192 -0.15374398 0.82002014
000140 90 6f 3f be ab 2e 27 3f ac b9 d5 3d aa e7 17 3f
       -0.18694901 0.65305585 0.10435805 0.59337866
000150 99 09 39 bf 03 5d 94 be ab f8 47 3e 6f 6b 64 be
       -0.7228027 -0.28977212 0.19528453 -0.22306608
000160 13 aa 4c bf e5 bc b0 3c 49 4e 15 3f 53 79 85 3d
       -0.7994701 0.021574447 0.5832258 0.065172814
000170 51 04 bd 3d a8 20 fc be 03 0c 43 be 2d 67 e1 be
       0.09229339 -0.49243665 -0.19047551 -0.4402403
000180 8f 92 a3 be 95 2d 91 be ca 90 11 bf 65 d8 b9 3e
       -0.31947753 -0.2835509 -0.56861556 0.36297908
000190 d2 92 1a be f3 83 a0 be 49 3e 83 be 65 46 a6 be
       -0.1509507 -0.3135067 -0.25633457 -0.32475582
0001a0 b4 a1 5d 3e 5e 67 03 3f f1 7b 25 3f c9 63 05 bf
       0.21643716 0.513296 0.64642245 -0.52105385
0001b0 e4 6f 18 bf b8 e9 c8 3e ea f0 a1 3d b1 69 e1 3d
       -0.5954573 0.39240813 0.07907279 0.11006487
0001c0 49 d9 d1 be 05 0a 4b 3c 9f 45 1b 3f 5c eb 83 be
       -0.40986088 0.012392526 0.6065311 -0.25765502
0001d0 72 8b 85 be 88 41 57 bf a6 8d 55 bf 17 4e 34 bf
       -0.2608295 -0.8408437 -0.83419263 -0.70431656
0001e0 66 e4 07 be 3f 8f 51 3f f5 9e d2 3e 7a 39 98 3e
       -0.13270721 0.818592 0.411369 0.2973135
0001f0 e3 4a ed bc 94 48 d9 3e eb 4f 66 3b 1c f5 40 3f
       -0.028966373 0.42438185 0.003514285 0.7537401

net.0.bias f4 [64]
000000 87 cd 68 3e 95 a3 08 3e 68 27 da be 81 f1 8c 3b
       0.22734652 0.13343652 -0.4260819 0.0043012504
000010 f8 b1 a3 3e 99 d6 ed 3e 2b bc 6f 3e 11 71 f7 3e
       0.31971717 0.46452788 0.23411624 0.4832845
000020 10 e3 8b 3e 45 34 89 3d 24 89 09 3f a2 53 78 be
       0.27321672 0.06699423 0.53724885 -0.24250653
000030 ff d4 93 bc 87 15 e7 be ce 19 f7 3d c5 fa f1 3e
       -0.0180459 -0.45133612 0.12065469 0.47261634
000040 44 63 a6 3e c1 84 c3 bd b2 34 69 3b 62 8e 2e 3e
       0.3249761 -0.09546805 0.0035584387 0.17046502
000050 59 12 fc 3d fc ea 17 3b 3c fa 0b bd fa 5b d2 3c
       0.12308187 0.0023180833 -0.03417419 0.025678623
000060 a9 54 bb 3e 32 ed b8 3e ed 99 a9 be 80 8c ed bc
       0.36588028 0.36118466 -0.3312525 -0.02899766
000070 5c e6 f9 3e d8 11 3f 3e 5c 80 3e 3e a7 20 22 3e
       0.48808563 0.1865915 0.18603653 0.15832768
000080 4a 5e 11 bf ed a6 d8 3e b7 a4 be bb e2 b5 e9 3d
       -0.567845 0.42314854 -0.0058179754 0.114116445
000090 6b 6b 09 bf 6e 47 a7 be 9b 88 97 3e 34 f5 7b be
       -0.5367953 -0.32671684 0.2959641 -0.24605256
0000a0 1f ca a4 3d a4 9a 3a 3e a5 ca 6a 3e b5 87 77 be
       0.08046364 0.18223053 0.22928865 -0.24172862
0000b0 22 5f 6a 3e 1b 73 d1 be 7e ea af 3e 0f ca e5 be
       0.22887853 -0.4090813 0.3435859 -0.4488072
0000c0 c3 4f 99 3e 5a ed 1a 3e 04 08 c6 be ae f7 7f 3e
       0.29943666 0.15129605 -0.3867799 0.24996826
0000d0 be f5 f6 3d 62 ff 22 3e ee e6 36 3e 39 2b 38 3d
       0.1205859 0.15917733 0.1786153 0.044963095
0000e0 e2 16 b8 be 13 12 96 be 9c ff b8 be 08 fa b9 3e
       -0.35954958 -0.29310665 -0.36132514 0.3632357
0000f0 49 3b 89 3d 29 f1 ac be 0c db e9 be 0a 88 30 bf
       0.06700761 -0.3377774 -0.45674932 -0.6895758

net.2.weight f4 [64, 64]
000000 e1 6d 5e bd ed ab 00 bc 00 7a 73 bd 77 17 b5 bd
       -0.054304007 -0.00785349 -0.05944252 -0.08842366
000010 22 b5 0f bc 67 ae 74 bd 66 4c 26 be 76 9d 6a 3d
       -0.008771213 -0.059736636 -0.16240081 0.057279073
000020 14 36 f6 bd c6 50 21 bd 94 d0 02 3d 3e e3 f4 3c
       -0.12022033 -0.039383672 0.031937197 0.029893514
000030 36 05 36 bd 43 ff 04 be 3f 33 0c be 10 64 12 3d
       -0.044438563 -0.12988 -0.13691424 0.03573996
000040 53 f1 84 be f8 8a 97 3d 46 6e e1 bd ff 6c 4d be
       -0.25965366 0.07399553 -0.11007361 -0.2006111
000050 9a 7b 0a be 7a 51 09 bc ce 9d 2d 3d 62 26 e6 3d
       -0.13523713 -0.008381242 0.042386822 0.1123779
000060 d1 a0 0e 3e 21 00 4e bd db 78 06 3d 49 6e 94 bd
       0.13928534 -0.05029309 0.0328301 -0.07247598
000070 bb 72 2a be 46 1f 95 be aa 2f 46 be 77 61 16 3d
       -0.16645329 -0.29125422 -0.1935412 0.036714043
000080 c0 3c cd 3d 1d 6c 7b be a0 57 16 3e df a2 7c bd
       0.10021353 -0.2455296 0.14681864 -0.061678763
000090 2a 0e c3 bc 0c f4 58 3e c9 e2 52 3d 61 ee 38 3d
       -0.023810465 0.21186846 0.05148581 0.04514921
0000a0 05 bf 86 3e 16 4b fe 3c 8d 47 1a be 7f 38 8e 3d
       0.2631761 0.031041663 -0.15066357 0.069443695
0000b0 24 30 73 be 1b c7 2a 3e f4 35 06 be 84 4a db 3d
       -0.23748833 0.16677515 -0.13106519 0.10707572
0000c0 e0 d6 1b bd 76 83 7e bd 3f 8c 9c 3d 8b 71 ff bc
       -0.038046718 -0.06213709 0.07643937 -0.031182071
0000d0 66 43 d3 3d c1 5c 1f be a1 01 cc bd 6f 06 72 bd
       0.103155896 -0.15562727 -0.09961248 -0.059088167
0000e0 ac 14 72 bd 8b b2 5b 3d 8e 14 13 3d 84 00 6a be
       -0.059101745 0.05363707 0.035908274 -0.22851759
0000f0 ed 1b 6b 3e 3b e9 ea 3d de d5 aa 3d 9e 4f 8c 3e
       0.22959872 0.114702664 0.08341573 0.27404493
000100 bb 4a d0 bc 4f f9 12 3e b9 7d c2 3d 9a 08 92 bc
       -0.02542626 0.14352916 0.09496636 -0.017826367
000110 05 bc eb bd 52 a2 41 be 14 8a 9a bd 54 8d 83 bd
       -0.11510471 -0.18909577 -0.075458676 -0.064234406
000120 0b a9 8d 3d 86 69 8c bd 53 8a 03 3e 5e d0 1f bd
       0.06917008 -0.068560645 0.12845735 -0.039017074
000130 b9 00 40 be 54 81 70 bd e7 68 5a 3e f3 35 2a 3e
       -0.18750276 -0.058717087 0.2132908 0.16622142
000140 3e f2 95 bd 56 21 48 be bf cf 82 3d cd 65 93 3e
       -0.07321595 -0.19543967 0.06387281 0.28788605
000150 8c a7 6d bd 62 eb d9 3d e1 09 85 be a6 f7 c7 3d
       -0.058021113 0.10640599 -0.259841 0.09764032
000160 03 0f f7 3d be 02 eb bd ad 28 65 bd d3 27 e9 3c
       0.1206341 -0.114751324 -0.055946995 0.028461372
000170 e9 a7 13 3e 26 55 c5 3e 59 05 0a be 79 f6 3c be
       0.14419521 0.38541526 -0.13478602 -0.18453397
000180 b2 22 20 be 01 ff 90 3e 97 ad 32 be 89 3e 86 bc
       -0.15638235 0.28319553 -0.17449032 -0.016387241
000190 66 5e 87 bd b6 f1 c7 bd e3 d4 63 3d 8c e6 a1 bc
       -0.06609802 -0.097628996 0.055622946 -0.019763254
0001a0 ed 7f ff bd 6f a4 9e bd ca 17 82 bd 23 3b ba 3c
       -0.12475572 -0.07746207 -0.06352194 0.022733277
0001b0 77 24 47 be 0c 2d 31 be 04 df a9 bd 45 0c 07 3e
       -0.19447504 -0.1730234 -0.0829449 0.13188274
0001c0 0d 97 94 3d cc a5 9e bd cc f5 ab 3d 52 4a 52 3d
       0.07255373 -0.07746467 0.083964914 0.05134041
0001d0 0f 2b 6b bd 7f 15 b1 bc 6c e4 03 be b8 f1 ba bd
       -0.05741411 -0.021616695 -0.12880105 -0.091281354
0001e0 b4 16 23 be 78 52 65 be 62 7e 01 bd 4d 05 11 be
       -0.1592663 -0.2239474 -0.03161467 -0.14162178
0001f0 e3 3f 1d be a6 af 86 bd d0 3e e4 bc ff f2 6a bd
       -0.15356402 -0.06576471 -0.027861983 -0.057360645
000200 e7 6b e2 bc 8b 17 b7 3d 1e 2a 16 bd b0 19 a9 3d
       -0.027639342 0.08940037 -0.03666126 0.082568526
000210 52 1c a2 bb 77 35 5f bd 37 34 38 3d f0 2b b1 be
       -0.0049472237 -0.054494347 0.04497167 -0.34603834
000220 53 4b 64 3e 88 93 a1 3d 97 bc cd 3d 26 93 60 3d
       0.22294359 0.078894675 0.10045736 0.05482783
000230 06 9c 81 3c ac 57 4e bd ac 93 cb 3d 8c e0 fd bc
       0.015821468 -0.05037658 0.099402755 -0.030990861
000240 7a 3d 44 3c 43 32 0d be 38 48 48 3d 96 9b 05 3e
       0.011977548 -0.13788705 0.048897 0.13047633
000250 bf ac 5e 3d 9f 8e 52 bd 4b c9 65 bf 39 e5 ce 3c
       0.054363962 -0.051405545 -0.89760274 0.025255786
000260 36 8b c9 bd 48 cc bf bd 12 b3 76 3d b4 d5 ab 3d
       -0.098410055 -0.093651354 0.06022937 0.0839037
000270 4d d5 23 3e 0f 41 69 3e b2 33 e2 3d b5 5d e1 bd
       0.15999337 0.22778724 0.11045016 -0.11004201
000280 ba 49 9e be 36 dc 08 3f b6 47 3f be 2a d1 93 bd
       -0.30915624 0.53461015 -0.186797 -0.07217629
000290 df a7 88 3e 42 e5 09 bd 16 38 a9 3c 53 5e 25 be
       0.26690575 -0.033665903 0.020656627 -0.16149263
0002a0 89 cc 5d bc 75 06 50 be 2e d1 ca bc 70 66 d3 3d
       -0.0135375345 -0.20314963 -0.024757948 0.10322273
0002b0 fc 81 b0 bd 7d 44 6f bd 67 dd 74 3d 25 81 17 3e
       -0.086185426 -0.058414925 0.05978146 0.14795358
0002c0 c9 e3 94 3d 62 b7 03 3d 6e 09 bc 3d 4f 85 9b bd
       0.07270009 0.03215731 0.09181486 -0.07593786
0002d0 f9 0b cf bd 84 0d 0a be ab 0e 88 bc 15 37 d9 3c
       -0.101097055 -0.13481718 -0.016608557 0.026515523
0002e0 ad a5 e5 3d 1b 22 e1 bd b6 d8 cb 3e 79 14 38 bd
       0.11213241 -0.10992833 0.39813775 -0.0449414
0002f0 1c a5 05 be 2f 43 91 3d 39 6f a6 bd 0a 5b 87 be
       -0.13051265 0.070928924 -0.08126683 -0.26436645
000300 0c be f2 3c bc e8 e0 3d 8b 48 7b 3d 41 9c b4 bd
       0.029631637 0.109818906 0.06134848 -0.088188656
000310 4f 99 19 b9 60 09 96 3d 96 7c c8 3d 2f 1f fa bc
       -0.00014648329 0.07326007 0.09789388 -0.030532448
000320 0c c8 4f bd 4d 8b 38 3c 68 ed 6a bd 90 a2 e7 3d
       -0.05072789 0.011263681 -0.057355314 0.11310303
000330 7c fa 01 be 1f 5a 1a 3d 42 3d f3 3d c2 24 c3 3d
       -0.12693208 0.037683602 0.118769184 0.09528495
000340 05 40 e5 3b d1 a9 d0 bc ef ff f5 bb b8 96 51 3d
       0.006996157 -0.0254716 -0.0075073163 0.051169127
000350 69 4f 73 bd 17 77 c4 bd af 63 27 3e ef 5b 3c bc
       -0.059401903 -0.09593027 0.1634662 -0.011496528
000360 d8 5c ab 3d 90 78 e7 bc e5 1b bc bd 91 bc b2 bd
       0.08367318 -0.02825573 -0.09185008 -0.087273724
000370 25 f0 b6 3d ab eb c0 3d aa c7 78 bc bc fb 3b 3d
       0.08932523 0.0941995 -0.015184322 0.04589437
000380 ff 84 f0 3d f5 6b c0 bd a7 00 52 3d 78 4c bf 3a
       0.11744117 -0.09395591 0.051270153 0.0014594933
000390 37 98 11 be 04 77 83 bd 2b f4 e7 bc 36 12 86 bc
       -0.14218222 -0.06419185 -0.02831467 -0.016366106
0003a0 2b 38 b8 3d fa 5e bb bd 08 19 05 3d e1 9a 10 3d
       0.08995088 -0.09148975 0.032494575 0.035303954
0003b0 e8 1a 24 bd c7 c2 f7 3c 49 cc 73 bc 47 28 cd 3c
       -0.040064722 0.030244244 -0.014880248 0.02504362
0003c0 2a 1b 04 bd 42 e8 66 3d 58 b5 e9 bd ac c6 34 3d
       -0.03225247 0.056373842 -0.11411542 0.04413478
0003d0 44 c5 aa bd e5 57 53 bd c9 60 bc bd 97 2f 96 bc
       -0.08338407 -0.051597495 -0.09198148 -0.01833324
0003e0 8c ee 92 bd b1 d4 a2 bd c7 79 f8 bd 3b 0f a8 bd
       -0.071744055 -0.07950724 -0.12132602 -0.0820603
0003f0 26 c4 5f 3d 06 cb 87 3d c7 99 91 3c 61 f1 0d 3e
       0.05463042 0.066305205 0.017773522 0.1386161

net.2.bias f4 [64]
000000 84 1f 82 bd d9 2c 29 3d fb f3 9f 3d bf 01 b4 bd
       -0.063536674 0.041302536 0.078102075 -0.087893955
000010 77 23 5d 3b 26 11 f9 bc 40 35 a9 3d c7 42 94 3d
       0.0033743063 -0.030403685 0.0826211 0.07239299
000020 94 b8 b7 bd 51 59 43 bc ef 3a 6c 3d a7 a8 3d 3d
       -0.08970752 -0.01192315 0.05767339 0.046303418
000030 16 65 6b 3d fe 5f 2d 3c f7 30 09 be cb 32 4b 3d
       0.05746945 0.010581968 -0.13397585 0.049608987
000040 29 59 c3 3c 8b c3 18 3d b0 13 bf 3d f5 21 2b bd
       0.023846226 0.03729586 0.09329927 -0.04178043
000050 8a b0 a5 ba 77 74 49 bc 83 a2 a6 3d ed 05 00 3e
       -0.0012641114 -0.012295834 0.081364654 0.1250226
000060 30 e6 bf bc 2b 59 9f bc 50 ca 10 bc 30 b9 74 bd
       -0.023425192 -0.019451698 -0.008837298 -0.05974692
000070 d1 a4 2f bd c7 b5 7b bc 3e 7e a3 bd 15 57 e4 bd
       -0.04288179 -0.015363163 -0.07983063 -0.11149422
000080 01 b8 dc 3d d6 a5 7c bd 3e 67 7a bd 43 13 a9 bd
       0.107772835 -0.06168159 -0.061133616 -0.08255627
000090 7f 8e d2 bd 4f 13 66 3c 29 1a 7f bd c4 f3 44 bd
       -0.10281085 0.014042689 -0.062280808 -0.048084036
0000a0 9a 91 7c 3d 64 4a aa 3c 66 f4 8d bd 99 3e 7a bd
       0.061662294 0.020787425 -0.06931381 -0.061094854
0000b0 a8 86 b6 bd ad dd e7 bc 0b a8 c1 3d d7 fd 16 3c
       -0.089124024 -0.028303945 0.0945588 0.009215794
0000c0 97 81 46 3c 11 4c cf 3d 09 69 eb bd 8f 69 f2 bd
       0.012115858 0.101219304 -0.11494643 -0.1183654
0000d0 7d 99 d4 3d 66 6d ae 3d 42 d4 49 3d 37 47 30 be
       0.10380838 0.0851696 0.04927469 -0.17214666
0000e0 d1 61 a0 3d 21 a4 a6 bd 2f ec 4b bd 26 b3 d2 bd
       0.07831157 -0.08136774 -0.04978579 -0.10288076
0000f0 ce f7 b8 3d f0 66 d6 bc 26 50 3f bd ef f1 23 be
       0.0903164 -0.026172131 -0.046707295 -0.16010259

net.4.weight f4 [64, 64]
000000 5f 1d 6b bc c5 26 ff bd a0 1b 7c bd d7 ef ee bd
       -0.014350264 -0.124585666 -0.061549783 -0.116668396
000010 64 d2 89 3d 7f b1 15 3d 35 c0 6b bc be 44 4e 3b
       0.06729582 0.036546227 -0.014389087 0.003147408
000020 e5 7b 14 3e 88 16 93 bd 9d 98 16 be 7a c3 c7 3d
       0.14500387 -0.07182032 -0.14706655 0.09754081
000030 96 07 a5 3d 9a 5f 8a 3d 10 80 0c be 17 49 08 be
       0.080580875 0.06756516 -0.13720727 -0.13309132
000040 ef 8d a1 bc cb 34 91 bd 5c f2 e2 3c 9b ea eb bd
       -0.019721 -0.070901476 0.027703457 -0.11519357
000050 7e 7b 61 bd 61 5f 82 3c 4a 8c 02 3d 3b aa 23 3c
       -0.055049412 0.01591462 0.03187207 0.009989317
000060 ff 9f ab 3d a7 fd 89 3d 06 b4 90 3d 0e d6 d7 3b
       0.08380126 0.067378335 0.07065587 0.0065867966
000070 03 00 7a bd 29 e9 5e bb da e8 95 3c 4b 0d 89 3d
       -0.061035167 -0.0034013486 0.018299509 0.066919886
000080 79 9e 9b bd 72 5d 85 3c 2b a8 73 3d ae ed 04 be
       -0.07598586 0.01627991 0.05948655 -0.12981293
000090 ae d0 25 be 6a c0 7a bc 05 79 01 3e 95 0d 7d 3e
       -0.16192886 -0.015304664 0.12643822 0.24712212
0000a0 92 ba 0e bd 8c 0b 96 3b a9 c5 92 bd 7a 52 c6 bd
       -0.034845896 0.004579013 -0.07166607 -0.096837
0000b0 1e 3e 70 3c a5 cd f5 ba 11 e5 69 bd 3d f2 3c bd
       0.014663247 -0.0018753303 -0.05710322 -0.046129454
0000c0 0e a3 ce 3d a5 c5 98 bd 17 03 85 bd c7 c3 2c be
       0.10089694 -0.07459573 -0.0649473 -0.16871558
0000d0 2b bb 45 bd ba df ef bb 97 e2 8d bd fb 21 ef 3c
       -0.0482742 -0.0073203715 -0.06927984 0.029191008
0000e0 bb 3d 6d bd 4f 75 98 3d 59 d9 c0 bd 9c 41 a6 3d
       -0.0579202 0.0744425 -0.09416456 0.08117983
0000f0 94 50 8e bc 27 3d eb 3d c9 ff 71 bd 33 68 a5 bd
       -0.017372407 0.11486273 -0.059081826 -0.08076515
000100 db be cd 3d 62 91 a6 bb 5b 66 27 be 97 fb ac bc
       0.100461684 -0.005083249 -0.1634764 -0.021116061
000110 07 98 d5 bc 9b c3 ac 3d 1d d6 2c bd ff 73 a2 bd
       -0.026073469 0.08435746 -0.04219638 -0.07932281
000120 41 e4 87 bd e8 e7 07 bd e7 ab 82 3c c6 c7 d1 3d
       -0.06635333 -0.033180147 0.01595111 0.10243182
000130 8e 74 9b 3b 41 76 8a bd 21 e6 3a bd 09 71 c2 3c
       0.004744119 -0.067608364 -0.045629624 0.02373554
000140 6d 29 b2 bd 81 87 b9 3b e7 08 64 3d 8e 90 b6 bd
       -0.086993076 0.0056619053 0.055672552 -0.0891429
000150 14 b1 31 bd 06 9e b5 3d c5 eb b6 3c 8a f2 c8 bd
       -0.043381765 0.08868031 0.02232922 -0.09811886
000160 fa 83 0d bd a7 3e 0a bd 5d 86 57 3c 69 c3 87 bb
       -0.03454969 -0.033751156 0.013154593 -0.0041431678
000170 4d a7 88 bd 27 f1 83 bd 96 48 83 bd 1f 68 18 bd
       -0.06672535 -0.064424805 -0.06410329 -0.037208673
000180 dd 1b 93 3c 97 e9 6c bd 9b 0c af bd 23 f1 93 3d
       0.017957622 -0.057839956 -0.08547326 0.072237276
000190 c6 e8 ba bc 1d 0d f4 bc c1 72 f7 bd 73 3a 09 3d
       -0.022816073 -0.02979141 -0.120824344 0.033503007
0001a0 ad 6c 4a 3d 14 45 93 bc f9 9a 9a bd 07 2d 37 3d
       0.049420048 -0.017977275 -0.0754909 0.044720676
0001b0 9c e4 82 3d 4e 70 25 bd ee 18 e8 bc 1b 40 84 bb
       0.0639126 -0.040390305 -0.0283322 -0.0040359623
0001c0 26 ef ce 3b 86 a1 1e bd e8 39 1d bd 73 ab e0 bc
       0.00631513 -0.03872826 -0.0383853 -0.027425503
0001d0 3a 7b 0f 3e bd 52 94 3d 4a 47 29 3c 6a 43 23 bd
       0.14011851 0.072423436 0.010331938 -0.039859213
0001e0 04 11 a8 bd 16 dc 8b 3d 33 63 6a bd d9 5f fe 3b
       -0.082063705 0.068290874 -0.05722351 0.007762891
0001f0 fa c5 86 3d 85 74 d8 bb a4 c6 2e 3d 5b 79 58 3d
       0.0658073 -0.006605687 0.042669907 0.05285011
000200 8e 70 4c 3c 0e 3e 48 be 5f 5b 61 bd 4f 71 2e 3d
       0.012478007 -0.19554922 -0.05501878 0.04258853
000210 e9 7a c1 bc 6d 14 fd bd b6 29 86 3d 21 0a 3a 3c
       -0.023618178 -0.123574115 0.065509245 0.011354954
000220 53 ea 48 3e fe f5 1f bd 21 38 8d bb 40 eb 6a bc
       0.19620638 -0.039052956 -0.0043096696 -0.0143383145
000230 6e e1 12 bb 23 07 08 3d 13 37 f6 bc cc 85 c5 3c
       -0.0022412199 0.03320993 -0.030055558 0.02411165
000240 95 a7 7c bd 04 2c 8f 3d 79 fb 80 3d 9b 8b a8 3d
       -0.061683256 0.06990817 0.062979646 0.08229753
000250 dd e6 0b bd 12 6c 25 bd 95 80 68 3c 88 a7 c1 3c
       -0.034155715 -0.040386267 0.014190813 0.023639455
000260 42 1d 1e 3d 39 86 a9 3d c9 28 e6 3d 28 f8 ed 3c
       0.03860212 0.08277554 0.11238248 0.029048994
000270 84 c2 81 bd 7e 8b 01 be c4 dd 9a bc a8 34 e0 3d
       -0.06335929 -0.12650868 -0.018904574 0.109475434
000280 38 b1 bb bd e2 fb 17 be 5c 3f 49 3c 3a 68 ac bd
       -0.09164661 -0.1484218 0.012283172 -0.08418317
000290 50 c7 ab bd 16 e5 83 bd a5 ab 0a 3e 1b 2f 90 3e
       -0.08387625 -0.06440179 0.1354204 0.2816094
0002a0 04 99 50 bd d3 e7 00 3c 99 c2 29 bd bc ad cf bd
       -0.050927177 0.007867771 -0.04144535 -0.10140559
0002b0 57 77 1a be eb eb 98 bd ee 82 2c be 56 a6 6c bb
       -0.15084587 -0.07466873 -0.1684682 -0.0036109886
0002c0 75 59 65 bd 9c 01 b4 bc c9 6b d9 bd f9 6a 55 be
       -0.055993516 -0.021973424 -0.106162615 -0.20841588
0002d0 45 4b 22 be b8 14 48 bd bd cc e2 bc f6 0a b7 bd
       -0.15849026 -0.048847884 -0.027685517 -0.089376375
0002e0 ae 52 87 3d 16 46 20 3d 82 99 b7 bd b0 32 71 bd
       0.06607567 0.03912934 -0.08964826 -0.05888623
0002f0 23 03 81 bc ef 4e ba 3d 4e 99 7d bd a4 23 a0 bc
       -0.015748566 0.09097087 -0.06191378 -0.019548245
000300 24 88 f6 3d 6d df a9 3c db 00 9e 3e 3f b5 9a bc
       0.120376855 0.02073642 0.30860028 -0.018885253
000310 ff fb 81 bc 16 fa ec 3d 46 89 0e 3d 99 2e 75 bd
       -0.015867231 0.115711376 0.034798883 -0.059858892
000320 d7 5c 6e be 08 45 90 bd ad 64 66 3c 17 2c e8 bd
       -0.23277603 -0.07044417 0.014062089 -0.113365345
000330 a5 e4 2b 3e 87 7b 30 3c 80 28 a8 bd 11 81 81 bd
       0.1678644 0.010771639 -0.0821085 -0.063234456
000340 65 17 ba bd ea cb c5 3d 23 91 07 3d df 51 6d be
       -0.090864934 0.09658034 0.033097398 -0.23175763
000350 d3 37 ca bd a2 e7 ff 3d 9e 26 f4 3b 8e 4d c6 3d
       -0.09873929 0.12495352 0.0074508926 0.09682761
000360 0e 87 3e 3d a3 ca 30 be 7c db d4 bd cd 21 b2 3d
       0.046515517 -0.172648 -0.10393426 0.08697853
000370 f9 ee d5 3d f8 0d 9d bd 20 51 05 3e 50 49 fb 3b
       0.10445971 -0.0766868 0.13019228 0.0076686516
000380 56 16 79 be fe de 7b bd 24 09 b0 3c f1 8d 30 3d
       -0.24324927 -0.06149196 0.021488734 0.043104116
000390 1e 36 03 bd 42 be 58 bd 05 eb a0 bd 72 6b e3 bd
       -0.032034032 -0.05291582 -0.078573264 -0.11104478
0003a0 b1 e1 ba bc fe 85 c1 bd 4c 3b 7a bd 7f 14 2a be
       -0.022812696 -0.09449385 -0.061091706 -0.16609381
0003b0 f8 57 54 bc 63 25 35 bd f6 7e 9d bb 6e 6c 95 bc
       -0.0129604265 -0.044225108 -0.0048063947 -0.01824018
0003c0 df 6f 27 3e 39 d7 74 bd 96 3b 84 3b ab 17 54 3e
       0.16351269 -0.059775565 0.0040354235 0.20712154
0003d0 fe a1 ef 3d e9 14 d6 bd e6 69 96 bd fe c2 a6 3b
       0.117008194 -0.10453207 -0.07344417 0.005089163
0003e0 db f2 14 be ed 4b 02 bd 45 f4 9b bd 74 d2 3f 3d
       -0.14545767 -0.03181069 -0.0761495 0.046831563
0003f0 93 9e f6 bd 60 d5 95 b9 99 99 95 bd 8a 37 78 3d
       -0.120419644 -0.0002857847 -0.07304687 0.06059984

net.4.bias f4 [64]
000000 70 bb 8d 3d 66 ca 10 bd 80 85 c0 bd 85 35 b4 bc
       0.069205165 -0.035349272 -0.09400463 -0.021998176
000010 91 2e 38 3d 00 b4 e2 bd bf f1 b6 bd 7b ea 98 bb
       0.044966284 -0.110694885 -0.08932828 -0.004666624
000020 78 57 ce bc 53 3c 9d bc 7e 8f 15 be 20 fe 64 bd
       -0.025188193 -0.019193804 -0.14605519 -0.055906415
000030 72 f7 ec 3d 73 a3 22 be e8 96 33 3d 5a dc 09 be
       0.11570634 -0.15882663 0.043845087 -0.13462964
000040 1f f3 55 bd fb e2 a1 bd 67 bd 4b 3d 03 d9 c2 bd
       -0.05223381 -0.07904621 0.049741175 -0.09514048
000050 9c ff a0 3c 0f 05 91 bd 58 90 1b bd 42 cb 01 be
       0.019653134 -0.07081043 -0.037979454 -0.12675193
000060 70 09 d8 3a 79 de 07 be a4 00 9e 3c 2e 2f a8 bd
       0.0016482305 -0.1326846 0.019287415 -0.08212124
000070 d3 3b 08 bb 12 b9 57 bd ea 6a 02 be b1 fc 9e bd
       -0.002078761 -0.05266673 -0.12736097 -0.07763041
000080 f6 f8 4c 3b cb b0 82 3d a5 8a 6d 3c aa 3e 3d 3d
       0.0031276322 0.06381377 0.014498387 0.04620234
000090 f4 4f 8e 3d 0f 68 25 3d 4f ba c2 3d 93 dd f1 3c
       0.069488436 0.04038244 0.09508192 0.0295246
0000a0 b8 97 18 be ab e2 66 3d e0 7c fd ba bc 16 3a 3d
       -0.14901626 0.05636851 -0.0019339584 0.045431837
0000b0 72 e8 ce bd 74 28 ae bd 4a e8 57 3c e8 63 2d 3d
       -0.10102929 -0.085038096 0.013177941 0.042331606
0000c0 f0 6d 8c 3d 52 e3 5e bc 5e bb c3 bd b1 2b e6 bb
       0.068569064 -0.013604002 -0.09557222 -0.0070242514
0000d0 f1 36 8c 3d 3d 84 dd 3c e6 b6 f0 3c 30 54 1f 3c
       0.06846417 0.027040595 0.029384088 0.009724662
0000e0 ff 3a cc bd 77 fc f7 3b 08 4e 92 bc 39 2d 3b 3d
       -0.0997219 0.007567938 -0.017859474 0.045697425
0000f0 46 e0 d2 bc 60 0c 20 bd f3 7f ae 3d 13 4e 4d bd
       -0.025741708 -0.0390743 0.08520498 -0.050123286

net.6.weight f4 [1, 64]
000000 1a 1d 87 bd 8a 3d 1d 3b a0 7a fe bd 31 65 b8 3d
       -0.065973476 0.002399298 -0.124257326 0.09003676
000010 0a a0 5c bd 72 4d a4 3a b6 1f 0e be 99 24 a3 bd
       -0.053863563 0.0012535288 -0.13879284 -0.07965965
000020 90 8e aa 3d 25 d8 09 be 7b 4e 6e 3b 12 1f a9 bc
       0.08327973 -0.13461359 0.0036362696 -0.020644698
000030 88 7a 7c ba 23 f8 bf 3d 45 5a 71 bd 14 de b1 bd
       -0.00096312957 0.093735 -0.05892398 -0.08684936
000040 d7 7c f7 3c 01 e7 6e bd a1 78 4f bd 3b b1 f6 bd
       0.030210895 -0.05832577 -0.05065215 -0.12045523
000050 ef fe 2e 3d a8 99 74 3a ce f9 6d 3a 86 e1 ed 3d
       0.042723592 0.0009330758 0.00090780563 0.11615281
000060 68 91 b2 3a d2 bb a4 bc 8a b1 a0 bd a3 a6 02 be
       0.0013623657 -0.020109091 -0.07846363 -0.1275888
000070 74 02 32 bc 48 0a 15 bd a7 36 02 be 6d 47 a8 3d
       -0.010864843 -0.036386758 -0.1271616 0.082167484
000080 20 a7 94 3b e2 20 c2 bd 58 9e 9e bb aa 11 01 be
       0.0045365244 -0.09478928 -0.0048406534 -0.12604395
000090 c7 85 a6 3d 53 a7 22 3a 93 fe cb 3d b8 08 62 3d
       0.08130985 0.0006204743 0.099606656 0.055184096
0000a0 4e c1 d4 bd fd f6 bd 3d 40 36 aa 3c d7 a9 a7 3d
       -0.103884324 0.09275625 0.020777822 0.08186691
0000b0 87 cb c7 bc 49 72 b5 3a 45 54 ba 3c 27 b9 ba bd
       -0.024389042 0.0013843264 0.022745261 -0.09117346
0000c0 d8 d1 0d bd 66 ef 57 bd cd 03 12 39 1f 83 32 bd
       -0.03462395 -0.052718543 0.00013925061 -0.043582078
0000d0 18 75 f6 3d d6 05 ff 39 00 7b b3 bc c3 4d bd bb
       0.120340526 0.00048641738 -0.021909237 -0.005777092
0000e0 19 f8 ab bd ba d4 06 3b ad 9a b5 3b f8 f9 3c 3c
       -0.0839693 0.0020573572 0.0055421204 0.011534207
0000f0 04 c3 64 ba 2c 18 06 be 50 7a 69 bb 04 f3 d9 3c
       -0.00087265694 -0.13095158 -0.0035625882 0.026605137
