examples_HF/models/double_well1d/model_double_well1d.pth (torch, 37648 bytes, 7 tensors)

net.0.weight f4 [64, 2]
000000 93 1e ea 3d 33 08 79 be 46 e8 b8 be a1 ce fb bd
       0.11431613 -0.24319534 -0.3611471 -0.12295271
000010 c8 d1 d1 be 9d 2c 43 3f 80 70 51 3e 32 8c 09 3f
       -0.40980363 0.7623995 0.20453072 0.53729546
000020 ff a7 cd 3d 5d 5f 08 3f 34 15 a8 be 64 77 25 bf
       0.10041808 0.5327051 -0.32828677 -0.646353
000030 bf 04 39 3e 80 2a 3e bf 13 bb 35 bd 21 3f 66 3e
       0.18068217 -0.742836 -0.04436786 0.2248502
000040 03 b9 9b 3e 86 be a8 3e b6 d1 21 3f ad cd 0a 3f
       0.3041459 0.32957858 0.6321062 0.54220086
000050 86 d8 53 3d 87 e6 45 be 6c c8 84 be 65 58 2c bf
       0.051720165 -0.1932622 -0.2593416 -0.6732238
000060 f6 44 0c 3e ac 02 1d be 75 f6 8a bc 36 ed 52 be
       0.13698182 -0.1533305 -0.016963223 -0.20598301
000070 18 f6 21 3c 29 b9 02 3f e4 03 6b 3e 76 72 09 3f
       0.0098853335 0.5106378 0.22950703 0.5369028
000080 e1 b9 8f be a9 ac 38 bf 3d 05 12 3e f0 56 e6 3e
       -0.28071502 -0.7213846 0.14259811 0.44988203
000090 23 a2 55 bd 61 92 40 be 56 a6 05 bf 3d 16 27 3e
       -0.05215658 -0.18805839 -0.52206933 0.16317077
0000a0 95 e6 8e 3e 39 d5 4d 3f eb c4 7b be 45 2d 1b bf
       0.27910295 0.80403477 -0.24586837 -0.6061595
0000b0 44 39 cb 3e 4d be 21 be e6 6a 97 3e 82 07 3c bf
       0.39692128 -0.1579525 0.29573745 -0.73448956
0000c0 14 b7 8c be a4 d1 78 be e9 99 c6 3e 75 42 49 3f
       -0.27483428 -0.24298722 0.387893 0.7861703
0000d0 f9 41 d7 3e be 8d ef be bf 14 33 3a 0c 4d c5 be
       0.4204252 -0.46787828 0.00068313995 -0.38535345
0000e0 70 fc 89 be 19 a9 80 bd 3f 68 1d 3f f4 7e 59 bf
       -0.26950407 -0.06282253 0.6148719 -0.8495934
0000f0 96 f7 be 3e 15 ec 52 3f 2f 92 f9 bc 51 80 a1 3e
       0.37298268 0.8239148 -0.030465214 0.3154321
000100 8a f7 22 bf 9a 29 1c bf 6e 76 01 bf bb 89 3d 3f
       -0.63658965 -0.6100098 -0.50571334 0.74038285
000110 f3 2d 04 3e 51 0a 33 bf 14 f1 82 be 64 ba c2 be
       0.12908153 -0.69937617 -0.25574553 -0.3803283
000120 ba bf db 3e 76 0f 0c 3e c6 fc 5e 3e 84 2f 0e 3f
       0.42919713 0.13677773 0.21776113 0.55541253
000130 f4 b2 06 3f 64 68 2b bf 89 7b fd be 55 89 bf be
       0.5261681 -0.6695616 -0.49508312 -0.37409464
000140 44 f1 99 bd 93 ed 47 3f fa 0d da 3e 26 6f 33 3f
       -0.07516721 0.78096884 0.42588788 0.70091474
000150 9c f3 24 bf 80 c2 12 bf c6 0a 69 3e d6 9b 5e be
       -0.6443422 -0.57328033 0.22758016 -0.21739134
000160 1a 08 9f be b9 20 f4 be 94 73 27 3f 65 46 2c 3f
       -0.31060869 -0.47681215 0.65410733 0.67294914
000170 e3 23 2a 3e d6 21 c4 3e 8b 05 43 be bf 52 26 3e
       0.16615252 0.38307065 -0.19045083 0.16242503
000180 e8 b6 ee be 0a d0 25 3f 45 79 8b be bc dc 0c bf
       -0.4662392 0.6477057 -0.2724096 -0.55024314
000190 33 d4 02 3f 98 90 30 be ca e8 74 3e 6c 76 11 bf
       0.5110504 -0.17242658 0.23916927 -0.5682132
0001a0 09 54 db 3e 3b f4 98 3e af fe 22 3e 45 c6 22 bf
       0.4283755 0.29873833 0.15917467 -0.63583785
0001b0 db 19 ec 3e f4 90 39 3f 38 8a 22 be 0b ae 14 bf
       0.46113476 0.72486806 -0.15873039 -0.5807807
0001c0 c4 9a 29 3d 64 88 37 3f d4 4c 65 3e a9 ac 84 be
       0.04140736 0.7169249 0.22392589 -0.2591298
0001d0 5a 36 e5 3e 45 b7 1e be 6e 94 cb bd d2 e8 f6 be
       0.4476803 -0.154996 -0.0994042 -0.48224503
0001e0 37 31 5a be 7a 29 b3 3e 14 e6 ca 3d 48 c6 ff 3e
       -0.21307836 0.34992582 0.09907165 0.49955964
0001f0 c7 b8 ab 3e e8 60 bb bb 3a fc 04 3f c1 30 07 be
       0.3353941 -0.0057183392 0.5194737 -0.13202192

net.0.bias f4 [64]
000000 74 b7 c7 3d ae 0b 38 3e 94 b1 2a 3e 17 61 20 bf
       0.09751788 0.17973205 0.16669303 -0.6264815
000010 c4 05 0a 3f b4 98 6b 3d 36 d2 9a be c8 aa 1c bf
       0.5391505 0.057518676 -0.30238503 -0.6119809
000020 fa b6 34 bd 9a 2f 38 bf e2 20 18 3e 62 d6 f6 be
       -0.044119813 -0.71947634 0.14856294 -0.48210436
000030 fa 36 00 bf 77 be 15 3f 82 a8 f3 be 31 16 8d be
       -0.5008389 0.5849375 -0.475895 -0.27555993
000040 a8 39 16 3f 17 a6 13 3d 27 cd 87 bd ff 19 23 bf
       0.58681726 0.036047067 -0.066309266 -0.6371154
000050 90 b9 bc 3e aa 9c 25 bf db f6 cb 3e 2f 5d f4 be
       0.36860323 -0.64692175 0.39836773 -0.47727343
000060 bc 8c bf be b2 a0 14 3f 66 27 e7 bd cd bb c9 3e
       -0.3741206 0.580577 -0.112868115 0.39401093
000070 96 13 55 3d 1e 1d 87 be ec df 1f 3f 60 1b c0 be
       0.05202063 -0.26389402 0.6245105 -0.37520885
000080 14 fe 95 be bf 43 31 bf d2 5a d0 bd 4a 14 8e 3c
       -0.2929541 -0.69244 -0.101735726 0.017343659
000090 8c 18 8a be 3a 51 ee bd be 83 15 bf 07 c6 0f 3f
       -0.26971853 -0.116365865 -0.5840415 0.5616154
0000a0 5b aa ca bc 89 6f 1c 3f d5 12 50 be 89 12 0a 3f
       -0.024739435 0.6110769 -0.20319684 0.5393453
0000b0 01 da e2 be e3 03 23 bf 92 af 04 bf 87 cb 17 bf
       -0.4430695 -0.63677806 -0.518304 -0.59294933
0000c0 3f 14 2a bf 26 33 0b bf a0 b5 00 3f 3f 1a 2b 3f
       -0.66437143 -0.5437492 0.5027714 0.66836923
0000d0 2d ca d4 3e c2 61 76 3e 83 e7 21 3e ae 7b c6 be
       0.41560498 0.24060729 0.15810971 -0.38766235
0000e0 64 b0 c1 3e 1c 8b 3f be d4 a5 96 be a5 fd fa 3c
       0.37829888 -0.1870541 -0.29423392 0.030638525
0000f0 aa 97 09 bf 6f 7d c3 3d 9e 48 a5 bd 03 e2 e7 bd
       -0.53747046 0.09545409 -0.08070491 -0.11322405

net.2.weight f4 [64, 64]
000000 e8 a1 22 bd 29 a0 cc 3d f4 bd fa bd 6b c6 08 3e
       -0.039705187 0.099914856 -0.12243262 0.1335694
000010 be 6c aa 3d b2 e0 d5 3d ff 0b 96 3d ac 99 2f 3d
       0.08321522 0.10443248 0.07326507 0.042871162
000020 17 62 f5 3d e4 90 3d bd c0 16 dc ba 35 d4 11 3d
       0.119816 -0.046280757 -0.0016791448 0.035602767
000030 92 fd bf 3d c4 47 23 3d b7 1f f9 bd 88 90 6b bb
       0.093745366 0.039863363 -0.12164252 -0.0035944302
000040 e9 fa 9a 3b 4b 49 db bd f8 84 03 3e f4 de 7f 3d
       0.004729618 -0.10707339 0.12843692 0.062468484
000050 93 d7 b3 39 31 3e ef 3b d2 5c 00 3e 05 9b a2 bd
       0.00034302156 0.007301115 0.12535408 -0.07939724
000060 ce e9 da 3d 20 19 70 3d f0 bd 8d 3d 63 55 d7 3d
       0.10689126 0.05861771 0.06920993 0.10514333
000070 fc 02 8e 3c ed 73 cc bd ac 74 85 3b 48 c2 1c bd
       0.017335407 -0.099830486 0.0040727463 -0.03827122
000080 48 fa f8 3d 5d af 28 be 50 66 0c 3d b5 a7 bd 3d
       0.12157112 -0.16473146 0.03427726 0.09260503
000090 b8 19 f2 3d 20 68 a3 bd bd a8 7f bc 38 13 bd 3d
       0.11821312 -0.07978845 -0.015604195 0.09232181
0000a0 9c 8d a7 3d be 01 cb 3d e5 d2 3f bc 15 da 1b bd
       0.08181307 0.09912442 -0.011707996 -0.038049776
0000b0 88 70 ac bd d3 6f a5 3c e8 3f 4e bd e1 cb 9a 3b
       -0.08419901 0.020194924 -0.050353914 0.0047240113
0000c0 b7 cc 37 bc 05 4a e7 3d b2 b6 13 bc 4f 5c 31 3e
       -0.011218241 0.11293415 -0.009015726 0.17320369
0000d0 69 62 28 3d 9f ad ce bd 16 f4 cf 3d 37 45 3e bc
       0.041109476 -0.10091709 0.101539776 -0.011613182
0000e0 28 28 48 3d d4 4e 87 bd 88 45 9b 3d 05 10 50 3c
       0.04886642 -0.06606832 0.075816214 0.012699132
0000f0 c5 05 10 be 8e d4 1e 3c f4 c2 c7 bc b6 06 eb bd
       -0.14064701 0.009694232 -0.024384953 -0.114758894
000100 5e 12 38 3d 3e 73 46 bd a4 45 03 be 4b 64 ff 3d
       0.04493939 -0.048449747 -0.12819535 0.12470301
000110 64 60 87 3d 85 08 a1 3d 43 0b 97 bc 8a d5 5a 3d
       0.06610182 0.07862953 -0.018437987 0.053426303
000120 b6 e4 c3 3d 2b 19 22 bc 8b db 98 3d 48 78 9a bd
       0.095651075 -0.009893696 0.074637495 -0.07542473
000130 e5 67 fc 3c 62 34 df bd df 12 2b be ae 21 68 bc
       0.03081126 -0.10898663 -0.16706418 -0.014168186
000140 81 2d 6b 3d 3c 3f d0 bd 6d b0 f2 3d bb 15 07 bc
       0.057416443 -0.10168311 0.11850057 -0.008244927
000150 bd 9a e6 3d e3 ce e3 3c a1 67 bf 3a 66 ae 54 bd
       0.11259983 0.027808612 0.0014603027 -0.05192413
000160 53 ab b3 bd 3a a3 01 3d 8a 78 3a bd 14 4f dc 3d
       -0.08772912 0.031649806 -0.04552511 0.107572705
000170 89 c7 9e 3b 5a 7f ae bd 59 23 be 3d 8b 29 cd bd
       0.004845564 -0.08520384 0.09284086 -0.10017689
000180 c8 4c c3 bd 07 88 38 be 62 ec b2 3d 58 3c 9c 3d
       -0.09536129 -0.1802064 0.08736493 0.07628697
000190 2e e9 7c 39 28 da 3e 3d c7 eb f5 bd c6 ef c0 bb
       0.00024119459 0.04659477 -0.120078616 -0.005887958
0001a0 9e f8 f9 bc 81 fb d1 3d 30 94 ec 3d de 36 4c 3d
       -0.030514058 0.10253049 0.11551702 0.049857013
0001b0 47 dd dc 3d 5b 4a 85 3d 1e 7b a9 bd 02 03 de 3c
       0.10784393 0.06508323 -0.08275436 0.027101044
0001c0 df fe 99 3c 7f 3d f9 3d 38 f2 34 3b 5a 4d 9b 3e
       0.01879829 0.121699326 0.0027610194 0.30332452
0001d0 d1 f2 f8 3d 13 b4 77 3d 2c eb 0b 3e 7a 5b 07 3e
       0.121556886 0.060474467 0.1366393 0.1321849
0001e0 63 5e b0 3d d2 5c 43 bd 17 27 0b 3d 1f 82 b6 bd
       0.08611753 -0.047695942 0.033972826 -0.089115374
0001f0 1d 6d 61 bd 8e 5d f6 3d 39 aa 81 bd 1b 7d a1 3d
       -0.0550357 0.12029563 -0.063312955 0.0788519
000200 e6 87 85 3d 35 1a 16 bc 6c 31 06 be 76 08 80 bd
       0.06520061 -0.009161522 -0.1310479 -0.06251614
000210 d4 40 ee bd a0 74 01 be 63 3e 9e bd 82 d6 53 3d
       -0.11633459 -0.12642145 -0.07726743 0.051718242
000220 09 cd a6 bd a8 39 23 be 3e 34 57 3d fc ae 03 3d
       -0.08144576 -0.15939963 0.052540056 0.0321493
000230 ef e3 ff bb d5 a4 c4 bd 3b 5d 4e be 91 7b ab bd
       -0.007809154 -0.09601752 -0.20152752 -0.08373178
000240 b0 34 1c 3e 18 4e 8c bc a8 d3 e7 bd 3a b5 c8 3d
       0.15254474 -0.017127082 -0.11319667 0.09800191
000250 02 c7 33 bd 89 fe 49 bd e9 be 70 3c 20 52 da 3d
       -0.04389096 -0.04931501 0.014693954 0.10660195
000260 a4 c0 7a bd b2 53 0a 3a 7f 7b 32 bd 80 fb fb 3c
       -0.061218873 0.0005276754 -0.043574806 0.030759573
000270 f3 2d 0a 3b 7d 3f 95 3d fe ee 1c bd b9 28 be bd
       0.0021084517 0.072875 -0.03831386 -0.09285111
000280 8e ff ff bc 61 af ec 3c 95 c3 c3 3c ed 89 10 3d
       -0.031249788 0.02889222 0.023896972 0.035287786
000290 1f 3d 83 ba 51 9b 8e bd 06 32 1c bd a9 8d 96 bd
       -0.0010012722 -0.06963218 -0.038133644 -0.07351238
0002a0 de ba ed bd 53 2f 8b 3d 9e 36 00 bd ca ab 94 bd
       -0.11607908 0.06796136 -0.031302087 -0.07259329
0002b0 a9 77 92 bd b2 96 0e be f7 b9 88 bc ac f4 d4 3d
       -0.071517296 -0.13924673 -0.016690237 0.1039823
0002c0 9d 74 3e bd 1a ea ff bd 75 6d 23 bd 39 fc 01 3e
       -0.04649793 -0.12495823 -0.03989931 0.12693872
0002d0 87 8e 73 3c e5 87 85 3d fb 92 ab 3c 3b 60 9f bd
       0.014865524 0.065200604 0.02094411 -0.077820264
0002e0 d3 59 6b 3d 46 23 26 bd 9b 58 0a 3e 36 c3 9a 3d
       0.05745871 -0.040560983 0.13510363 0.07556765
0002f0 28 51 c7 3d e5 70 dd bd 43 ee be 3b fd 29 2e 3d
       0.09732276 -0.108125485 0.005826743 0.042520512
000300 b6 12 53 3d 58 86 9b bd 6d 39 24 3b f9 b9 68 3c
       0.051531516 -0.075939834 0.0025058642 0.014204496
000310 ad 23 84 bd 67 97 4e 3d 8b 92 c0 bb ff 82 cd bd
       -0.06452117 0.050437357 -0.0058768443 -0.10034751
000320 ce 5d cd 3d 33 3b 8b bd b4 14 12 bd 3e f8 ab 3d
       0.100276574 -0.06798401 -0.035664275 0.08396958
000330 6d fe 92 bd 3b e2 c6 bd e5 c2 ad bd e9 36 03 3d
       -0.07177434 -0.09711119 -0.08484439 0.03203479
000340 69 10 31 3d 97 97 11 be 72 a2 ed bd ca 34 21 bc
       0.04322854 -0.14217983 -0.116032496 -0.009839246
000350 5c 9b 5c bd 2e 40 9d 3d 5f 61 ea 3d 33 f2 06 be
       -0.0538591 0.07678257 0.11444353 -0.13178329
000360 84 c8 a0 bd 70 f0 1d bd 73 0c af 3c b8 6e 23 bd
       -0.07850745 -0.038559377 0.021368241 -0.03990051
000370 f8 6f d9 bc 84 91 37 bd ba eb f0 bc a7 87 24 3d
       -0.026542649 -0.04481651 -0.029409278 0.04016843
000380 65 28 f5 3d 86 3e 45 be 6f 56 00 be 49 53 3d 3d
       0.11970595 -0.19262132 -0.12532972 0.046222005
000390 aa f8 2d bd 09 a1 0c be 60 96 f7 bc ae 40 a6 bc
       -0.042473473 -0.13733305 -0.030223072 -0.020294514
0003a0 0f 76 2a bd c9 d1 91 bb 63 24 fa 3d 01 25 15 3e
       -0.041616496 -0.004450057 0.122139715 0.14564897
0003b0 c8 e4 84 bc 05 e2 ec 3c 38 d9 64 3c 11 b7 ef bd
       -0.016222373 0.028916368 0.013967805 -0.11704839
0003c0 8f 2f f5 3b 08 92 2d 3d e5 17 74 bb 3e 5f 2e 3e
       0.007482476 0.042375594 -0.0037245688 0.1702852
0003d0 c3 e2 c9 3d 95 c9 d7 3c ad 76 cf bc 33 8b 3f bd
       0.098577045 0.026341239 -0.025325144 -0.04676361
0003e0 33 18 f2 bc 73 e5 6e 3c a0 89 da 3d ee c9 3b bd
       -0.029552555 0.014581072 0.10670781 -0.045846872
0003f0 d8 81 1f be f0 b3 ed bd ab da 56 3d c8 c1 74 3b
       -0.15576875 -0.11606586 0.05245463 0.0037346948

net.2.bias f4 [64]
000000 b2 3c 03 be 45 67 10 3d 6e 9e f9 3d 3b b6 e2 3d
       -0.12816122 0.035254735 0.12188421 0.11069914
000010 bc e3 62 bc 39 1a 14 bd 97 47 70 bd a5 96 d0 3d
       -0.013848241 -0.03615782 -0.058662023 0.10184983
000020 6f bf 8f 3c c7 d4 0c be f3 ac 76 3d 81 79 c7 3d
       0.017547337 -0.13753043 0.06022353 0.09739972
000030 8f ba b4 bd 72 dc e5 3c 00 6e ef bc 2e 24 67 3b
       -0.08824646 0.028059218 -0.029227257 0.0035269368
000040 0f 9d 20 bd 41 60 0d 3d 69 0b bf bc 2b 11 f4 3d
       -0.039212283 0.034515623 -0.02332087 0.11917337
000050 80 df 74 3c 70 34 cd 3d 02 87 d1 bd c7 86 96 3d
       0.014945865 0.10019767 -0.10230829 0.073499255
000060 ee f9 a0 bd 94 06 f2 bd 6a e6 b7 3c 55 67 ae 3c
       -0.0786017 -0.11817661 0.022448737 0.021289507
000070 b9 8c f0 bd e7 16 a5 bd 05 76 50 bd d0 27 b6 3d
       -0.11745591 -0.08061009 -0.050893802 0.088943124
000080 8c eb 1e bd bc 9e a0 3d 22 0f f9 3d a2 7f e4 3c
       -0.038798854 0.07842776 0.121610895 0.027892891
000090 31 cd fb 3d af b3 94 bc 73 c3 ba 3c 28 4c a4 bb
       0.122949965 -0.018152086 0.022798276 -0.0050139613
0000a0 02 14 ec bc bd 93 af bd b5 fb 46 bc a3 76 d2 3d
       -0.028818134 -0.08573101 -0.012144973 0.102765344
0000b0 27 86 ce bd 7f 48 4d 3d ad c6 b9 3d 7f b4 fd bd
       -0.10084181 0.050117966 0.090710975 -0.123879425
0000c0 85 d6 6a 3c a9 3e 6b bc 89 bd dd 3d 9d d8 e0 bc
       0.014333372 -0.014358201 0.108271666 -0.02744704
0000d0 e7 a9 b6 bc 13 f2 94 3d 4c d4 b8 bd 44 2d 3d bd
       -0.022297813 0.072727345 -0.090248674 -0.046185747
0000e0 d3 60 c6 bd ab 6b e1 bb 5d b4 f2 3d a0 f0 b2 3d
       -0.096864365 -0.00687929 0.11850808 0.08737302
0000f0 1e 95 13 bc a8 21 a1 3d f9 c1 1b bd 2c 5b 5c bd
       -0.00900772 0.078677475 -0.038026784 -0.053797886

net.4.weight f4 [64, 64]
000000 46 6d e1 3b 73 e9 95 bd d8 02 b4 3b 01 5b 64 3b
       0.0068794815 -0.073199175 0.005493503 0.0034844282
000010 08 86 f6 3a 8c 0e f0 3d 18 7b 18 3d a8 cd c5 bd
       0.0018808255 0.117215246 0.037226766 -0.096583664
000020 c0 d4 f2 3d 18 fa af 3d 8a 89 a0 3b f1 e4 4b 3b
       0.11856985 0.085926235 0.0048992084 0.0031111802
000030 c8 8f 66 3c e8 f4 38 3c c7 f4 d8 bd c3 b0 90 3c
       0.014072366 0.011288859 -0.105935626 0.017662412
000040 28 30 d1 bd bf 35 41 bd d3 f2 b3 3c 63 21 94 bd
       -0.10214263 -0.047170397 0.021966374 -0.072329305
000050 02 e2 d9 bd 41 01 e0 3c f2 5f 0b be 99 99 b2 3d
       -0.10638811 0.027344348 -0.13610819 0.08720703
000060 ef cf 08 be e5 aa e3 3b 33 5e a3 bc b4 d5 85 bd
       -0.1336057 0.0069478625 -0.019942379 -0.06534901
000070 b6 ec ac bd db 22 df 3d 9c 59 68 bd 91 ba 8a 3d
       -0.084435865 0.1089532 -0.056726083 0.06773866
000080 55 fd a4 bd 36 14 65 3d d1 ab b2 3d 0a fe a3 bd
       -0.08056132 0.055927478 0.08724178 -0.080074385
000090 bf 47 e2 bc 69 9e 81 3d b6 86 51 3c 3f a0 e6 3c
       -0.027622102 0.063290425 0.012788465 0.028152583
0000a0 d0 f3 d5 bd 21 82 e4 bd 6d c2 a8 3d 53 fe c1 bc
       -0.10446894 -0.111576326 0.08240209 -0.023680842
0000b0 1c b1 47 bd 13 15 97 bd 90 78 21 bd 65 29 70 bc
       -0.04875289 -0.073770665 -0.039421618 -0.014658307
0000c0 fe 1c 55 bd 91 45 2b bd de ec 71 3c 04 c5 e9 bd
       -0.052029602 -0.04181439 0.014765946 -0.11414531
0000d0 9f 2e 00 be 36 29 dc 3d c7 07 bb bd 70 21 04 3e
       -0.12517785 0.10750048 -0.09132343 0.1290338
0000e0 1a 13 9c bd 2b f0 8e 3c 8f a1 66 3d 2c 7e 75 3d
       -0.07620831 0.017448505 0.056306418 0.05993478
0000f0 55 0f cc 3d 58 01 83 bd 66 e8 cf bd 73 2b 19 3e
       0.09963862 -0.06396741 -0.10151748 0.14957981
000100 0d ef ae 3d 5f 21 30 bb ef aa 4a 3d 81 95 c3 3d
       0.08541689 -0.002687536 0.04947942 0.0955
000110 e8 d6 9a bd 21 40 25 3e 41 4f b6 bd 16 30 e8 bd
       -0.07560521 0.16137744 -0.08901835 -0.11337297
000120 8e f3 16 bc 1f 05 00 3e 43 c4 a7 ba a3 e3 b0 3d
       -0.009213341 0.12501954 -0.0012799579 0.08637168
000130 e7 da eb 3a ec 21 01 3d 0d 27 45 bd 05 a4 3f bc
       0.0017994315 0.03152649 -0.048132945 -0.01169682
000140 a7 81 47 3d 21 5f 02 ba a8 f5 aa bd a6 b4 b8 bc
       0.04870763 -0.0004973282 -0.083476365 -0.022547077
000150 36 6d f0 3c c6 f5 1f 3e 58 1c e4 bc d3 0e e1 3d
       0.02934895 0.15621099 -0.027845547 0.109891556
000160 60 1c ae bd 7a ed 17 3d dd de a4 3d 20 33 81 3d
       -0.08501506 0.03709171 0.0805032 0.063085794
000170 4b 22 21 bd ab 05 dc 3d 04 bc e8 3c c6 91 59 bb
       -0.039339345 0.107432686 0.028409965 -0.003319846
000180 e1 04 05 bc b8 89 b0 3d 5f 34 a6 bd d8 44 87 3c
       -0.008118839 0.08620018 -0.08115458 0.01651232
000190 b0 6b 2a 3d 13 c8 02 be 5a 6b d4 3d e9 ab d8 3d
       0.041606605 -0.12771635 0.10372038 0.10579664
0001a0 3f b2 1a 3d 8f 6a e1 bd 21 ff 11 bd 46 59 3e bd
       0.037767645 -0.110066526 -0.0356437 -0.046471857
0001b0 30 44 a7 3d 30 02 9a 3d 88 2d d4 bc 22 9b 0f 3d
       0.081673026 0.075199485 -0.025900617 0.035060056
0001c0 74 ed 0a bb 0d 42 4e 3d b1 c2 6b bd 87 8f c3 3c
       -0.0021198662 0.05035596 -0.05755872 0.02387215
0001d0 61 10 be bd 4b ab 81 3d 23 02 64 3d 18 bb be 3d
       -0.09280468 0.063315 0.0556661 0.09313029
0001e0 89 8e 2b bd 7c 1a 1f 3d 8b 85 9e bc 31 7a 7d bc
       -0.04188398 0.038843617 -0.019350788 -0.015471027
0001f0 2a 91 a9 bd 60 eb 5c 3d 70 66 d7 bd ff cd 73 bd
       -0.08279641 0.05393541 -0.10517585 -0.059522625
000200 2e 63 d1 3d 93 a7 b1 bd 94 2c 80 3d d9 0c 1d 3d
       0.10223995 -0.0867454 0.062585026 0.03834233
000210 0c 0d 75 be 3e 38 ad bd d8 d2 0f be 7e 56 39 3e
       -0.23930758 -0.08457993 -0.14045274 0.180994
000220 88 b9 b4 bc 48 e8 1d be 0e 88 83 3d 8c d0 1f 3e
       -0.022061124 -0.1542064 0.06422435 0.15606898
000230 3e 2e f7 bc e4 7a d0 bd 22 4b 59 be 8b 16 a2 3d
       -0.030173417 -0.101796895 -0.21220067 0.07914456
000240 90 04 1f 3e 26 20 29 3d 4f 5d e9 bd 7a 5a 94 3d
       0.15529084 0.041290425 -0.1139475 0.072438195
000250 a0 a0 df bc 2b 52 0d be 5a 8c 8e bc 60 2d af bd
       -0.027298272 -0.13800876 -0.01740091 -0.085535765
000260 10 11 3b be 41 73 ce bd c8 ad bb 3d 5b fc 37 3d
       -0.18268228 -0.10080577 0.091640055 0.0449184
000270 8e 95 bf bd b1 ce 10 3e 2e ba cc 3d 4f 74 5f be
       -0.09354697 0.14141347 0.099964485 -0.21821712
000280 3a 49 5c 3d e7 26 ec 3d e1 9c a9 bd b5 fc df 3c
       0.05378077 0.115308575 -0.082818754 0.02734218
000290 62 ed 8d 3d ba e2 ca bc eb a7 58 3d f2 46 cf bb
       0.06930043 -0.024766315 0.052894514 -0.006325596
0002a0 99 20 95 bd 66 9e 79 bd 36 f2 ca bc 63 0b 19 3e
       -0.07281608 -0.060942076 -0.024773698 0.1494575
0002b0 93 66 10 be ad 80 af 3d 16 d5 0a be 81 8c bb 3c
       -0.14101629 0.08569465 -0.13557848 0.022894146
0002c0 d9 39 76 bd 70 c3 40 be 88 83 f3 3d 26 2b 97 3d
       -0.06011376 -0.18824553 0.11890322 0.07381277
0002d0 4b 8f 5a 3d 52 f2 87 3e f9 3f f6 bc d7 f5 ef bd
       0.05335931 0.26552063 -0.030059801 -0.11716812
0002e0 02 09 67 bd 06 de 79 3c ff 33 2a 3d 1d fe 6b 3d
       -0.056405075 0.015250688 0.041553494 0.05761539
0002f0 3a bd 7e 3c 11 c9 34 bd 01 32 04 3d d5 c8 9d 3d
       0.015548045 -0.044137064 0.03227425 0.07704321
000300 29 44 f4 3d 7e 73 ae 3d 2b 29 21 3d bc ba bd 3d
       0.11927063 0.08518122 0.0393459 0.092641324
000310 5c 8d de bd 6c 54 96 be 24 64 df be 0c 2e 12 3e
       -0.10866806 -0.29361284 -0.4363109 0.14275378
000320 0a d0 10 be 11 bc 4a 3d c8 f8 19 3e ed 3f ba 3d
       -0.1414186 0.04949576 0.15036309 0.09094224
000330 e4 2e 19 3e 0a a1 c4 bd a3 c9 d4 bd 71 6b c8 bd
       0.14959294 -0.09601028 -0.10390022 -0.09786118
000340 00 c5 c6 bc d1 9a a7 bd 47 e4 c7 3d 13 aa 9e bb
       -0.024263859 -0.08183826 0.09760337 -0.004842052
000350 1b 10 af bb 43 47 e4 be 4d 09 6f 3d 9a 02 85 be
       -0.005342496 -0.44585618 0.05835848 -0.25978547
000360 66 41 62 3d 6e b0 c9 3d 39 5b 03 3e c1 da d6 be
       0.05523815 0.098481044 0.12827767 -0.4196377
000370 10 16 09 bf c3 8d 9d 3e d3 a9 93 3d 44 c4 a3 be
       -0.5354929 0.30772218 0.07210126 -0.31985676
000380 af 39 1e 3e 55 de 08 3e f8 49 1d 3e a1 79 0e be
       0.15451692 0.13366063 0.15360248 -0.13913585
000390 64 45 d4 3d 31 0e 2e 3e 54 9b f9 bd cc c9 88 3d
       0.10364798 0.16997601 -0.121878296 0.06679115
0003a0 80 0f d0 bd bc 2e 08 3e 2d 2b be 3c 5d 0c ec 3c
       -0.101592064 0.13299078 0.023213947 0.028814489
0003b0 c6 1f 48 bd 93 64 b0 bd d1 d0 78 3d 6f e5 df bc
       -0.048858427 -0.08612933 0.060746018 -0.027331082
0003c0 74 26 40 bd 6b 7f 52 be 9f a4 a3 bd 60 fe 95 3d
       -0.04691167 -0.20556419 -0.07990383 0.07323909
0003d0 10 31 39 3c 30 d7 34 3e ed c8 3d be 95 7a 16 be
       0.011303201 0.17660213 -0.18533678 -0.14695199
0003e0 fe eb 07 3e d4 75 99 3d 3c 94 39 3e fd 05 e3 3c
       0.13273618 0.07493177 0.18122953 0.027712816
0003f0 ff f9 a5 3e 0a 58 11 3e 97 ca 26 bc 8b 04 8f 3b
       0.32417294 0.1419374 -0.010180137 0.0043645552

net.4.bias f4 [64]
000000 46 a5 02 3e 47 ce c1 bd 0c 95 96 bd 6e 95 3f be
       0.1275836 -0.094631724 -0.07352647 -0.18709347
000010 8a 33 a7 bc bc 94 77 bd 89 b5 8a 3d 18 e8 ec bc
       -0.020410318 -0.06044458 0.06772906 -0.028919265
000020 04 70 e9 3d 99 97 40 3d 60 71 91 3d b0 fa bf bd
       0.113983184 0.047019575 0.07101703 -0.09373987
000030 01 74 19 bc b3 bb 0a bd 06 93 49 be e4 cf 2b be
       -0.009366036 -0.03387041 -0.19684991 -0.16778523
000040 69 f9 cd bd 97 41 5b 3d 98 7a e4 bd a3 6b a1 bd
       -0.10057337 0.05352935 -0.111561954 -0.07881858
000050 a9 61 aa 3d 69 0f 6a 3d 62 b9 3f bd 0c 1a 29 bc
       0.083194084 0.057143603 -0.046807654 -0.010321151
000060 d4 f2 e1 3d a0 22 ba bd bb bb 83 bd db fa d4 3d
       0.11032644 -0.090886354 -0.06432291 0.103994094
000070 97 b9 b1 3c b7 8b a2 bb 66 5d 93 bb c8 42 82 bd
       0.021694941 -0.004960503 -0.004497218 -0.06360394
000080 f1 e1 64 bd a4 b0 93 bd 79 92 c2 3d 92 50 b7 3d
       -0.055879537 -0.07211426 0.09500594 0.089509144
000090 4c 00 2b bd 52 cb 95 bd 40 21 90 3d e5 bb 4d bc
       -0.04174833 -0.07314171 0.07037592 -0.012557005
0000a0 a3 8f ec 3d 5f 37 0d be ea 3d ce bc 60 5c 0b 3d
       0.11550834 -0.13790654 -0.025176007 0.034023643
0000b0 f7 3e 7e 3d 1b b8 9d 3d 13 29 c2 3d 08 7a 09 bd
       0.062071767 0.07701131 0.094804905 -0.033563644
0000c0 d5 52 bd bd 44 64 3c bd 74 1d 4b 3d f6 12 72 3c
       -0.092443146 -0.04599406 0.049588636 0.014775028
0000d0 92 d5 49 3d 61 c5 bc 3d 56 ec e8 3d d1 d0 ae 3d
       0.049275942 0.092173345 0.113732025 0.08535922
0000e0 f1 3b fd 3d a2 7a dd 3c bc 53 f2 bc 42 d3 f4 bc
       0.123649485 0.027036015 -0.029580943 -0.029885892
0000f0 24 87 a2 3d bc ff 1f be f6 4b 49 3d 38 8a 03 bc
       0.07935932 -0.15624899 0.049144708 -0.008028559

net.6.weight f4 [1, 64]
000000 49 52 16 bb 5a 53 e8 bb b0 69 01 bd f7 80 49 be
       -0.002293723 -0.0070900144 -0.031594932 -0.19678102
000010 04 eb be 3a 80 11 18 bd dc 80 99 bd 0a b9 6d 3b
       0.001456589 -0.037126064 -0.07495281 0.0036273622
000020 eb 88 b1 b9 5f bb a1 3a 5f 70 ec b9 d7 f8 ce bd
       -0.00033862083 0.0012339166 -0.0004509715 -0.10106056
000030 ca 35 ea bc 37 7c c3 bc 24 6d f0 bd 6d 9c 62 bd
       -0.028590102 -0.023862941 -0.11739567 -0.05532496
000040 79 9d 23 be 78 0d d9 ba 8e ef 18 39 80 f1 d7 3c
       -0.1597804 -0.00165598 0.0001458509 0.026360273
000050 2e 0f 9b 3d 79 55 59 3b b7 80 07 3d 12 d0 ee 3a
       0.07571255 0.0033162518 0.033081736 0.0018219969
000060 fb f8 d1 bd 54 fd a7 ba 3b a1 c7 3d 5b 3b b8 ba
       -0.102525674 -0.0012816587 0.09747549 -0.0014055775
000070 4f c8 f5 3d 6b 3c 0b 3a 02 14 81 ba 5a 2b 05 3d
       0.120010965 0.0005311432 -0.0009847882 0.032512046
000080 82 99 e8 3b 0a a5 e1 ba bc 32 66 bb 6b 6a a4 3c
       0.0070983777 -0.0017215323 -0.0035125455 0.020070275
000090 ae 57 a3 3d ea 14 de bd 46 59 3a 3d 84 89 5f ba
       0.07975708 -0.10843833 0.045495294 -0.00085272663
0000a0 d9 48 f9 bd 04 e8 26 3e 72 16 fb 39 55 e1 d9 ba
       -0.12172098 0.16299444 0.00047891174 -0.001662294
0000b0 2c 3b 95 b9 a1 f6 5a 3a e2 d6 93 ba b4 c2 2e bb
       -0.0002846358 0.00083527906 -0.001127925 -0.0026666345
0000c0 a0 7e 24 3b 14 7f 90 3d 4d 6c 96 bd 2f 10 89 3d
       0.0025099888 0.07055488 -0.073448755 0.0669254
0000d0 79 6e 9c 3b 44 96 71 3a 81 c1 36 bd ce 2a 92 bd
       0.0047739116 0.0009215812 -0.044618133 -0.071370706
0000e0 f5 a4 dd 3c 4f 12 d5 ba 20 1b 30 3c 51 bd ee ba
       0.027056197 -0.0016256067 0.010748655 -0.001821438
0000f0 0c 89 9c 3b b0 19 07 be 8b b6 25 3e 34 24 ad ba
       0.0047770794 -0.13193393 0.16182916 -0.0013209642
