examples_HF/models/double_well1d/model_double_well1d_g_GM_unbalanced_reg_PDE.pth (torch, 38064 bytes, 7 tensors)

net.0.weight f4 [64, 2]
0	0xbe3a9c0c	-0.1822359
1	0xbf2f487a	-0.68469965
2	0x3e1030ee	0.14081165
3	0x3f42ba6f	0.76065725
4	0x3efbf374	0.49209177
5	0xbe8e6afe	-0.27816004
6	0x3df9256d	0.121653415
7	0x3dca6183	0.0988188
8	0xbd41c40e	-0.047306113
9	0x3ed950f3	0.42444572
10	0xbe191727	-0.14950238
11	0xbf3c7344	-0.7361338
12	0xbd820b64	-0.06349829
13	0xbe67a240	-0.22620487
14	0x3f36dd0a	0.7143103
15	0xbf2d8db2	-0.67794335
16	0xbeee1005	-0.46496597
17	0x3efd77c1	0.49505427
18	0xbe620d46	-0.22075376
19	0xbea6650b	-0.32498965
20	0x3f00fc3b	0.50384873
21	0xbf5bd6a8	-0.85874414
22	0xbe88fa9c	-0.267537
23	0xbea720da	-0.3264225
24	0x3e8bdf0b	0.27318606
25	0xbf5275c5	-0.8221095
26	0xbeca3f64	-0.39501488
27	0xbf0933e7	-0.5359482
28	0xbe887349	-0.26650456
29	0x3f61e9cd	0.88247377
30	0x3ebd4f3f	0.36974522
31	0xbe96478c	-0.2935146
32	0x3f2b5fa3	0.66942805
33	0xbf3faa87	-0.7486958
34	0x3efb25d5	0.490523
35	0x3f513e26	0.81735456
36	0x3d0cc720	0.034369588
37	0x3f183e6b	0.5947024
38	0x3db3dbb2	0.08782138
39	0xbf0755ab	-0.52865094
40	0xbdd7da54	-0.1053969
41	0xbf111f9f	-0.56688875
42	0xbe9f7fd5	-0.31152216
43	0xbf784d40	-0.96992874
44	0x3e69cf1a	0.22832909
45	0xbf3e4275	-0.74320155
46	0x3d94d2ae	0.072667465
47	0x3f19372a	0.598498
48	0x3e6febd7	0.2342981
49	0x3dfdfb80	0.124014854
50	0xbf4cd853	-0.80017585
51	0xbf1a844f	-0.60358137
52	0xbe2841d5	-0.16431363
53	0x3e8806e9	0.26567772
54	0xbe38dab8	-0.18052185
55	0xbf0f7004	-0.560303
56	0x3f43908c	0.76392436
57	0xbef10c4f	-0.47079703
58	0xbd2138d6	-0.039360844
59	0x3ea758d2	0.32684952
60	0x3e906284	0.2820016
61	0xbeb15b03	-0.3463975
62	0x3f54fbd7	0.8319678
63	0xbe11e3e2	-0.14247087
64	0xbecee81d	-0.40411463
65	0x3ecd60a2	0.40112787
66	0x3f081f9a	0.5317322
67	0xbec4ac74	-0.3841282
68	0x3ea2105d	0.3165311
69	0x3f03cd33	0.51484984
70	0xbe949af9	-0.29024485
71	0x3e1bff79	0.15234174
72	0x3dfdbab3	0.12389126
73	0x3f330b93	0.69939536
74	0x3d362580	0.044469357
75	0xbec2eac7	-0.38069746
76	0x3ee672d3	0.4500948
77	0xbf0ab398	-0.5418029
78	0xbda268e9	-0.07930166
79	0xbe85b26a	-0.26112682
80	0xbe68afd5	-0.22723325
81	0xbf09fc6c	-0.5390079
82	0xbd4062e8	-0.046969324
83	0xbda418e0	-0.08012557
84	0x3e5b3a78	0.21409023
85	0xbf33b95f	-0.7020473
86	0xbe2f403f	-0.17114352
87	0xbef370d4	-0.4754702
88	0x3ec92403	0.39285287
89	0xbcd5ff73	-0.026122784
90	0xbe25ba84	-0.16184431
91	0x3c17708b	0.009243141
92	0xbee950bb	-0.45569405
93	0xbe261c67	-0.16221772
94	0xbedd91fc	-0.4327544
95	0xbf371006	-0.71508825
96	0x3df61165	0.120150365
97	0x3f2c2e09	0.67257744
98	0x3dd6e600	0.10493088
99	0xbf153a12	-0.58291733
100	0x3e1ff90d	0.15622349
101	0xbf06b74a	-0.52623427
102	0x3f3a1bfe	0.7269896
103	0xbdfd481d	-0.1236727
104	0xbeeb403a	-0.45947438
105	0x3e1c4234	0.1525963
106	0xbedf9e61	-0.4367552
107	0xbf311b81	-0.6918259
108	0xbd23c8cc	-0.039986417
109	0x3e620172	0.22070864
110	0x3f2ce087	0.675301
111	0xbf7cdd4b	-0.98775166
112	0xbeb245b2	-0.34818798
113	0xbe495575	-0.19661506
114	0x3c8eef21	0.01744801
115	0x3f1fcded	0.6242359
116	0xbe580630	-0.2109611
117	0xbf4778cf	-0.77918714
118	0x3e952bba	0.29134923
119	0x3e850c38	0.25985885
120	0xbe20f386	-0.15717897
121	0xbf1228ee	-0.57093704
122	0x3d9fcbcc	0.07802543
123	0x3e68918b	0.2271177
124	0xb980bf7c	-0.0002455673
125	0xbece1dc1	-0.40257075
126	0xbeb1a8ef	-0.346992
127	0x3f82abab	1.0208639

net.0.bias f4 [64]
0	0xbe19690e	-0.14981481
1	0xbe6ac4e7	-0.22926675
2	0xbed30271	-0.412128
3	0xbef6c9b1	-0.48200753
4	0xbf07af3c	-0.5300176
5	0xbdde508b	-0.10855206
6	0x3d02e7e8	0.031959444
7	0xbf0cc3d5	-0.54986316
8	0xbe5f0ce3	-0.2178226
9	0x3ecc042e	0.3984694
10	0xbf067fe3	-0.5253889
11	0xbef7db9e	-0.48409742
12	0xbef378a4	-0.4755298
13	0xbdeff1e0	-0.11716056
14	0x3efd221c	0.49440086
15	0x3e3004e8	0.17189372
16	0x3f04fb4e	0.5194596
17	0x3ed769f9	0.42073038
18	0xbf392a37	-0.7233004
19	0xbe6c9b83	-0.23106198
20	0xbc4316d5	-0.011907299
21	0x3dae4837	0.08509868
22	0xbed98a35	-0.42488256
23	0x3ed6c0e2	0.41944033
24	0xbf233b93	-0.6376278
25	0xbe08a954	-0.13345844
26	0xbf2499b7	-0.6429705
27	0xbea5e72e	-0.3240294
28	0x3eb5ccec	0.35507905
29	0xbed5fb7c	-0.4179343
30	0x3f06ebde	0.52703655
31	0x3d948575	0.072520174
32	0xbec77317	-0.38954994
33	0xbf121cf2	-0.5707542
34	0xbd2374b5	-0.039906222
35	0xbf2a8527	-0.66609424
36	0xbe6976f1	-0.22799279
37	0x3ebb65cd	0.36601105
38	0x3ea4f8d1	0.32221082
39	0xbdcaa958	-0.09895581
40	0x3eca22c0	0.39479637
41	0xbeadb174	-0.33924448
42	0xbec4ff0b	-0.38475832
43	0xbea6dec0	-0.3259182
44	0xbf0f74d7	-0.5603766
45	0xbf01047b	-0.5039746
46	0xbe614d29	-0.2200209
47	0xbf30ea6b	-0.69107693
48	0xbe9da4d3	-0.30789813
49	0x3eefbb73	0.468227
50	0x3f2f6d1a	0.6852585
51	0xbf257a18	-0.64639425
52	0x3f2225d2	0.6333896
53	0xbea53127	-0.32264063
54	0xbe9d9054	-0.30774176
55	0xbee21d9f	-0.44163224
56	0xbe3f0a54	-0.18656284
57	0x3eb0fd84	0.34568417
58	0x3d8989c0	0.06715727
59	0xbeb0b951	-0.34516385
60	0xbe7d0eaa	-0.24712625
61	0xbef145bd	-0.4712352
62	0x3ecda5e6	0.40165633
63	0x3e5cd412	0.21565273

net.2.weight f4 [64, 64]
0	0x3d99a4ab	0.07502111
1	0xbe6afeb6	-0.22948727
2	0x3dcb779d	0.09934924
3	0x3df2b700	0.11851311
4	0x3e3cb096	0.18426737
5	0xbbef963d	-0.007311611
6	0xbe3708c3	-0.17874436
7	0x3d46273f	0.04837727
8	0x3d1d5e01	0.038419727
9	0x3ddab51c	0.10679075
10	0x3d420c90	0.04737526
11	0x3d2f2b22	0.042765744
12	0x3e066dcd	0.13127823
13	0x3d6b853e	0.057500117
14	0xbd961fcd	-0.07330284
15	0x3d0cbab1	0.03435773
16	0x3e002b81	0.12516595
17	0xbd3842f1	-0.044985715
18	0xbd5a52db	-0.053301673
19	0x3db4041f	0.087898485
20	0x3e126f6b	0.14300315
21	0x3ddeaa0a	0.10872276
22	0x3ceb8e5a	0.028754402
23	0xbe2b34ab	-0.1671931
24	0xbd894b3e	-0.067038044
25	0x3e149b99	0.14512481
26	0x3c867d32	0.01641712
27	0x3d320c29	0.043468628
28	0xbd7dc6b6	-0.061957084
29	0x3e14a384	0.14515501
30	0x3df55ada	0.11980219
31	0xbbe6a27b	-0.007038412
32	0x3cd36272	0.025803778
33	0xbd36ea35	-0.04465695
34	0xbd7f27d6	-0.06229385
35	0x3e1cd7c4	0.15316683
36	0xbec5ceaa	-0.38634235
37	0xbdb4ecd2	-0.088342324
38	0xbd6b576d	-0.057456423
39	0x3ca4f732	0.020137403
40	0xbbabc53b	-0.0052420176
41	0x3e58d95a	0.21176663
42	0x3d3cc759	0.04608855
43	0x3db2b716	0.08726327
44	0x3ca89864	0.020580478
45	0x3d754275	0.05987783
46	0x3e581b19	0.21104087
47	0x3e5b5d16	0.21422228
48	0x3ba5d74d	0.0050610662
49	0xbd94722c	-0.07248339
50	0x3d27baf7	0.040949788
51	0xbdc786f0	-0.09742534
52	0xbbbe712d	-0.0058118314
53	0x3dfa7574	0.12229434
54	0x3dfb6629	0.12275345
55	0x3ca48a2a	0.020085413
56	0x3de08cb4	0.10964337
57	0xbdf72b64	-0.12068823
58	0x3d55f35b	0.052234035
59	0xbdda1e9f	-0.10650372
60	0x3e5b4e62	0.2141662
61	0xbdb95891	-0.09050096
62	0xbe1a96d6	-0.15096602
63	0xbbf4d893	-0.0074721067
64	0x3cb0780f	0.021541623
65	0x3de0ffb6	0.10986273
66	0xbd88c961	-0.06679035
67	0x3e306780	0.17226982
68	0xbd916a2f	-0.07100331
69	0x3d40100c	0.046890303
70	0xbe1ee21a	-0.15515938
71	0xbe095547	-0.13411437
72	0xbd7eeb0f	-0.062235888
73	0xbd69adc5	-0.057050485
74	0x3d7bdbe8	0.061489016
75	0xbd4eb517	-0.05046567
76	0xbe13aab5	-0.14420588
77	0xbdca68ee	-0.09883295
78	0xbdc7bb08	-0.0975247
79	0x3dfa5116	0.12222497
80	0x3d0ccb90	0.03437382
81	0x3e43a864	0.19107205
82	0x3e0d5a2f	0.13803934
83	0xbe27efb4	-0.16400033
84	0xbd8eb88f	-0.069687955
85	0xbd989db7	-0.07451957
86	0xbd5cd01b	-0.053909402
87	0x3e1d6837	0.15371786
88	0x3dcec173	0.10095491
89	0xbd8c254b	-0.068430506
90	0x3c57353b	0.01313525
91	0xbd4eb435	-0.050464828
92	0x3c796905	0.0152227925
93	0xbd34b132	-0.0441143
94	0xbcb8485b	-0.02249544
95	0x3d4a0ae9	0.04932681
96	0xbc4a7be8	-0.012358643
97	0x3e099afe	0.13438031
98	0x3dfc22fa	0.12311359
99	0xbd7c5893	-0.06160791
100	0x3e17bfe0	0.14819288
101	0x3c55ceda	0.013049806
102	0x3d359d3b	0.0443394
103	0xbd6f46e9	-0.058417235
104	0xbde77bed	-0.11302934
105	0xbde0cc73	-0.109764956
106	0xbe22e959	-0.15909328
107	0x3d58a14e	0.052888207
108	0x3da6e4fd	0.08149145
109	0xbd94a0b0	-0.07257211
110	0x3d39ba08	0.04534343
111	0x3dbfc682	0.09364034
112	0x3e0df34c	0.13862342
113	0xbe58c640	-0.21169376
114	0xbe1301e9	-0.14356197
115	0x3d1ca926	0.03824725
116	0xbd621217	-0.055193033
117	0xbd527d0f	-0.051388796
118	0x3db2e9a8	0.08735973
119	0xbe56fde6	-0.20995292
120	0xbc97fb4d	-0.018552447
121	0x3c938cdb	0.018011501
122	0xbd26af7b	-0.040694695
123	0x3d4b441d	0.049625505
124	0x3d9d291f	0.07673859
125	0x3c8bb751	0.017055186
126	0xbdcb5a52	-0.099293366
127	0x3b80754f	0.0039202343
128	0x3ed9bb55	0.42525735
129	0xbf664eea	-0.89964163
130	0x3c448c29	0.011996307
131	0x3dc0e00a	0.09417732
132	0x3ce3ab09	0.027791517
133	0x3f8a1156	1.078654
134	0x3d10e9e7	0.035379317
135	0x3e1a78e0	0.15085173
136	0xbddc29ce	-0.10750161
137	0x3dabb148	0.08383423
138	0xbe4bf568	-0.19917834
139	0x3e0cc535	0.13747104
140	0x3dbaa019	0.091125675
141	0x3e835168	0.25648046
142	0xbdc3484b	-0.09535273
143	0x3debfe46	0.11523108
144	0x3e1c5afe	0.15269086
145	0xbe85612c	-0.260507
146	0xbdbe613e	-0.09295891
147	0x3e4e1eaf	0.20128892
148	0x3f300745	0.6876109
149	0x3f3faa79	0.74869496
150	0x3e40358a	0.18770424
151	0xbe702eb6	-0.23455319
152	0xbd89d866	-0.06730728
153	0x3dadbcc9	0.084832735
154	0x3e103fcb	0.14086835
155	0x3ede00de	0.43360037
156	0xbc8325e7	-0.016009284
157	0x3df77ab5	0.120839514
158	0x3c7e0d18	0.0155060515
159	0xbc9c52b8	-0.019082412
160	0xbdcab6ad	-0.09898124
161	0xbe7bb082	-0.24579051
162	0xbe6a3b5c	-0.22874206
163	0x3db99b94	0.09062877
164	0xbfcf04b4	-1.617331
165	0x3d4fff84	0.050780788
166	0x3da3029b	0.07959481
167	0x3d5436fd	0.051810253
168	0x3d279d9e	0.0409218
169	0x3dfa6fb8	0.1222834
170	0x3e37fed4	0.17968303
171	0x3ea31bde	0.31857198
172	0xbac603ca	-0.001510733
173	0x3d392d19	0.045209024
174	0x3e080bda	0.13285771
175	0x3e91ae4f	0.284533
176	0xbeff0763	-0.49810323
177	0x3d19f039	0.03758261
178	0xbca20f24	-0.01978261
179	0xbd2a64e3	-0.04160012
180	0xbd300489	-0.042973075
181	0x3eaf8136	0.34278268
182	0x3d388801	0.04505158
183	0x3e3db4f3	0.18526058
184	0x3d7708bb	0.06031106
185	0xbe103766	-0.14083633
186	0x3f6a015b	0.9140832
187	0xbd6d0e0d	-0.057874728
188	0x3ee0f4c7	0.4393675
189	0x3d20774b	0.039176267
190	0x3dd41472	0.10355462
191	0x3cc5d575	0.024149636
192	0xbda7bae5	-0.08189944
193	0x3e9cd154	0.30628455
194	0xbdc338b8	-0.095323026
195	0xbdc151d9	-0.09439439
196	0x3d46fea4	0.048582688
197	0xbe2ca978	-0.16861522
198	0xbc1f6087	-0.009727604
199	0xbb230795	-0.0024876345
200	0x3e42ff8b	0.19042794
201	0xbd23653e	-0.039891474
202	0xbdcccb64	-0.09999731
203	0x3c51e378	0.01281058
204	0xbe14bb97	-0.14524685
205	0x3e035e74	0.12829
206	0x3e5e1366	0.21687087
207	0xbe1cba7a	-0.1530551
208	0xbd92a36b	-0.07160076
209	0x3c9b3b20	0.018949091
210	0x3d6e4eb0	0.05818051
211	0xbe292ef4	-0.16521817
212	0xbd127877	-0.035759415
213	0x3e2d0793	0.1689742
214	0xbe6e4224	-0.23267418
215	0x3e474a84	0.19462019
216	0xbe1d1267	-0.15339051
217	0x3e1cfc05	0.15330513
218	0xbd86bc45	-0.06578878
219	0xbd7e865f	-0.062139865
220	0x3d312e52	0.043257065
221	0xbd19b533	-0.03752632
222	0xbd0e33a5	-0.03471722
223	0x3de33cd4	0.110955864
224	0x3e11d91d	0.14242978
225	0xbace52d1	-0.0015741234
226	0x3c21c502	0.0098736305
227	0x3d39c099	0.04534969
228	0x3e3764c0	0.17909527
229	0xbdb9a152	-0.090639725
230	0xbda87b91	-0.082266934
231	0x3dc23703	0.09483149
232	0x3c68564f	0.014180734
233	0xbdbc7b10	-0.0920316
234	0xbe88c75d	-0.26714602
235	0xbd6db6d6	-0.058035694
236	0xbde16ab6	-0.110066816
237	0xbb198fa7	-0.002343157
238	0x3e25e6f4	0.16201383
239	0xbd27d8e2	-0.04097832
240	0x3da1fc9f	0.07909512
241	0xbe837e9d	-0.25682536
242	0xbe1b7d71	-0.15184571
243	0x3d148f6b	0.036269587
244	0x3dd3cc54	0.10341707
245	0x3e018143	0.12646966
246	0x3e19ebb1	0.15031315
247	0x3d880279	0.066410966
248	0x3da12ec8	0.07870251
249	0x3e6e1a05	0.23252113
250	0xbd205e5c	-0.039152488
251	0xbcf6b842	-0.030117158
252	0xbe284585	-0.1643277
253	0xbe10d614	-0.14144164
254	0xbdb8e7d7	-0.09028595
255	0x3e57f788	0.2109052

net.2.bias f4 [64]
0	0xbd0ebb47	-0.03484657
1	0xbc46a13b	-0.012123401
2	0xbdc9e071	-0.09857262
3	0x3d5a55ad	0.053304363
4	0xbe265bf4	-0.16246015
5	0xbe7dbca7	-0.24778996
6	0x3e04eec7	0.12981711
7	0xbd48d651	-0.049032513
8	0xbd5b9472	-0.053608365
9	0xbe01abd8	-0.1266321
10	0xbd12fca1	-0.035885457
11	0xbe0afbbb	-0.1357259
12	0xbe0bd626	-0.1365591
13	0xbdbcbc76	-0.092156336
14	0xbe801d63	-0.2502242
15	0xbdce7660	-0.10081172
16	0x3d14f46a	0.036365904
17	0xbe176714	-0.14785415
18	0xbd287f2d	-0.04113691
19	0xbe2080fd	-0.15674205
20	0xbe173e81	-0.14769937
21	0x3d0486b8	0.03235504
22	0xbe4a4808	-0.1975404
23	0xbdb804d8	-0.08985299
24	0xbe869772	-0.2628742
25	0xbddea483	-0.10871222
26	0x3dba0a85	0.09084038
27	0x3d1b1799	0.0378643
28	0xbe185f9f	-0.14880227
29	0x3ddf988d	0.109177686
30	0x3d0505a0	0.032476068
31	0xbdb64db8	-0.089015424
32	0xbcd98abc	-0.026555412
33	0x3cc31124	0.023811884
34	0xbd5187f6	-0.051155053
35	0x3d665762	0.05623568
36	0xbe01cf49	-0.1267673
37	0xbe38736f	-0.18012784
38	0xbd7320c4	-0.05935742
39	0xbe528770	-0.20559478
40	0xbd31a1ca	-0.043367185
41	0xbda1b037	-0.078949384
42	0xbd97dd82	-0.07415296
43	0xbdeb69f8	-0.11494821
44	0xbce4b894	-0.027920045
45	0x3b9b1b7b	0.0047335005
46	0xbce4d39b	-0.027932933
47	0xbe45f605	-0.1933213
48	0x3cb33dba	0.02188002
49	0xbd7c5e04	-0.061613098
50	0xbcf480d6	-0.02984659
51	0xbd68b886	-0.0568166
52	0xbe36d1b0	-0.17853427
53	0x3d84fb72	0.06493272
54	0xbe4bb14b	-0.1989185
55	0xbb483be2	-0.003055327
56	0xbe115dce	-0.1419594
57	0x3e016413	0.12635832
58	0x3e500532	0.20314482
59	0xbe4a9831	-0.19784619
60	0x3dc59fb3	0.09649601
61	0xbdcb8158	-0.0993678
62	0xbde2853b	-0.11060568
63	0x3d89f7b4	0.06736699

net.4.weight f4 [64, 64]
0	0xbdb04c43	-0.08608296
1	0x3e2354ce	0.15950319
2	0xbe8b1772	-0.27166325
3	0x3e30b306	0.17255792
4	0x3d9ae737	0.07563632
5	0x3dc51320	0.096227884
6	0xbc334184	-0.010940913
7	0xbcfa5987	-0.030560268
8	0xbe2580e8	-0.16162455
9	0x3d2fa46a	0.042881407
10	0x3e08c5df	0.13356732
11	0x3df43c5f	0.11925577
12	0xbd49df4f	-0.04928523
13	0x3d67f4e1	0.05663002
14	0x3db9968f	0.0906192
15	0xbed1d465	-0.40982357
16	0x3d77b6b6	0.06047698
17	0x3d71d697	0.05904254
18	0x3d1a8d61	0.037732486
19	0xbddd9af8	-0.108205736
20	0x3e00beff	0.12572859
21	0xbe654820	-0.22390795
22	0x3e0d0360	0.13770819
23	0xbc28e90c	-0.010309469
24	0x3bf81c06	0.0075717
25	0x3e5be923	0.21475653
26	0x3df2f345	0.11862806
27	0x3e6776de	0.22603938
28	0xbcbf9120	-0.02338463
29	0xbdeb6c4b	-0.114952646
30	0xbe275998	-0.16342771
31	0xbe2068a3	-0.15664916
32	0x3da5de8c	0.08099088
33	0xbe1ca111	-0.15295817
34	0x3d241550	0.040059388
35	0x3d34c330	0.044131458
36	0x3d2284d1	0.039677445
37	0xbd383624	-0.044973508
38	0xbd484349	-0.048892293
39	0xbd5e95e5	-0.05434217
40	0xbf5aeeff	-0.8552093
41	0x3d95c0bb	0.07312151
42	0xbde2f1fa	-0.110813096
43	0xbc943cec	-0.018095456
44	0xbcd8f8c8	-0.026485816
45	0x3e01ec2e	0.12687752
46	0xbd4bbd89	-0.0497413
47	0xbde225f5	-0.11042396
48	0x3dc02df7	0.09383767
49	0xbe2d02cb	-0.16895597
50	0x3e6ffdcd	0.23436661
51	0xb9fbd88c	-0.0004803579
52	0x3e20c560	0.15700293
53	0x3d63b457	0.055591907
54	0xbc9a2110	-0.018814594
55	0x3e57ecde	0.21086451
56	0x3cffe17f	0.031235455
57	0x3df56034	0.1198124
58	0xbc8cb4a9	-0.01717599
59	0x3e1bfa53	0.1523221
60	0x3e6cb192	0.23114613
61	0x3cabe716	0.020984214
62	0xbc10e190	-0.008842841
63	0x3dcc9579	0.09989447
64	0x3e0c83d8	0.1372217
65	0xbe9f0bbb	-0.31063637
66	0xbd2f9a92	-0.04287202
67	0xbebece5b	-0.37266812
68	0xbe922bcc	-0.2854904
69	0xbd037ba3	-0.03210033
70	0xbd7acc24	-0.06122984
71	0xbc17eb11	-0.009272353
72	0xbd63ba88	-0.055597812
73	0x3cc8cc4b	0.024511477
74	0xbcb7f32d	-0.022454822
75	0x3ded01bb	0.11572596
76	0x3e5f7b13	0.21824293
77	0x3d72a11c	0.059235677
78	0x3d2abeb5	0.04168578
79	0xbda2b94f	-0.07945501
80	0xbe54a0ea	-0.20764509
81	0x3d83c096	0.06433217
82	0x3b0b138d	0.002122137
83	0x3d2fbd94	0.042905405
84	0x3d8bbef4	0.06823531
85	0x3e2c53e9	0.16828884
86	0x3da6c1d1	0.08142436
87	0x3cb72acd	0.022359276
88	0x3d36ca4f	0.04462653
89	0x3df21314	0.11820045
90	0x3d578214	0.052614287
91	0xbb828a74	-0.00398379
92	0x3e242f7f	0.16033743
93	0x3e530e53	0.20610933
94	0xbde1b1b6	-0.11020224
95	0xbd51d8da	-0.051232196
96	0x3cb61a97	0.022229476
97	0xbdc58d3d	-0.0964608
98	0x3ceb7ae2	0.028745119
99	0xbe09a4df	-0.134418
100	0x3bb01c09	0.005374436
101	0x3d00c7cc	0.03144054
102	0xbebb129d	-0.36537638
103	0x3e0bd460	0.13655233
104	0xbf50e32b	-0.8159663
105	0xbd9bf108	-0.076143324
106	0x3d5ede56	0.054411255
107	0xbd5799d7	-0.052636947
108	0x3d35a64e	0.044348054
109	0x3d8ffe47	0.070309214
110	0x3d8c9e6d	0.06866155
111	0xbd99d23c	-0.07510802
112	0xbd70117e	-0.05861043
113	0xbb1d0601	-0.0023959877
114	0xbebbb48b	-0.3666118
115	0x3dd5f5e8	0.104472935
116	0x3d4f770e	0.05065065
117	0xbd5a856b	-0.053349894
118	0x3d458347	0.0482209
119	0xbe3bf4cc	-0.18355101
120	0x3dae6bd7	0.085166626
121	0xbdb4e37b	-0.08832451
122	0xbc260ce2	-0.010134907
123	0x3e086a74	0.13321859
124	0x3c80323a	0.01564895
125	0x3d978933	0.073992155
126	0x3d6bdfc0	0.05758643
127	0x3d12c641	0.0358336
128	0xbc75a7ea	-0.014993647
129	0xbd1e8e3c	-0.038709864
130	0x3d545866	0.051842116
131	0xbdc253de	-0.09488653
132	0x3ca891eb	0.020577392
133	0x3cf09767	0.02936907
134	0xbd8346d0	-0.06409991
135	0x3dac24c5	0.08405451
136	0x3d8a83c1	0.06763411
137	0x3d9390d6	0.0720536
138	0x3cc16ae6	0.023610543
139	0x3c116b98	0.00887575
140	0xbcfe64fa	-0.031054009
141	0x3d52da48	0.0514777
142	0xbcad81c2	-0.021180037
143	0xbd98e32a	-0.07465203
144	0x3c790d49	0.015200921
145	0xbc962837	-0.018329723
146	0xbc58d81f	-0.013235121
147	0xbce235ad	-0.027613485
148	0xbd40686d	-0.04697459
149	0xbc2efad6	-0.010679921
150	0x3d8eda04	0.06975177
151	0xbd32dbca	-0.04366664
152	0xbd1a288e	-0.037636332
153	0x3db01df5	0.08599464
154	0x3c8c75ad	0.017145956
155	0xbd4c1148	-0.04982117
156	0x3be8e717	0.007107626
157	0x3d97486c	0.0738686
158	0x3be2e0f9	0.0069237915
159	0xbd825e25	-0.06365613
160	0x3d3c81c5	0.046022195
161	0xbbb806ce	-0.0056160456
162	0x3d90309a	0.0704052
163	0x3d4110f8	0.047135323
164	0xbe049e22	-0.12950948
165	0xbdc91407	-0.09818273
166	0xbcf1c102	-0.029510979
167	0xbbc6ff64	-0.0060729254
168	0x3d8cf0a7	0.06881838
169	0x3c9f25d0	0.01942721
170	0x3d4febaf	0.050761875
171	0x3d9c44d9	0.07630319
172	0x3db25493	0.087075375
173	0xbd31de53	-0.043424916
174	0x3c0f0d8e	0.008731259
175	0x3b5d0d0c	0.00337297
176	0x3be30ce3	0.0069290265
177	0x3ad0458b	0.0015889866
178	0xbd3ec39d	-0.04657327
179	0x3d3776ae	0.044790916
180	0x3d523e4d	0.051328946
181	0xbdad8026	-0.08471708
182	0x3da6b577	0.081400804
183	0xbd954c1e	-0.07289909
184	0xbda83b66	-0.08214454
185	0x3d14e5f9	0.03635213
186	0xbd632485	-0.05545475
187	0x3c2be463	0.010491463
188	0x3db1b684	0.0867739
189	0x3e08be7e	0.13353917
190	0xbb93570a	-0.00449646
191	0x3de5ca7a	0.1122026
192	0xbcaf3b30	-0.021390527
193	0xbea53637	-0.32267925
194	0xbdb4b2f1	-0.08823193
195	0xbea47f1e	-0.32128233
196	0xbdcdff19	-0.10058422
197	0x3d1ff1f7	0.039049115
198	0xbb3f0daa	-0.0029152432
199	0xba037637	-0.0005014869
200	0xbd5337cf	-0.051566895
201	0xbcb2d3ab	-0.021829447
202	0xbd5eae49	-0.05436543
203	0x3e2c87f7	0.16848741
204	0x3e821560	0.25406933
205	0x3c760e67	0.015018082
206	0x3dd92688	0.106030524
207	0xb91d0a23	-0.00014976463
208	0xbe9a75ee	-0.30168098
209	0x3da1ec16	0.07906358
210	0xbd56085e	-0.052254073
211	0x3d125ce9	0.035733137
212	0x3db685a9	0.089122124
213	0x3e83786b	0.2567781
214	0x3cbc095c	0.022953682
215	0x3ced1adf	0.028943477
216	0x3dab6f26	0.08370809
217	0x3e4adce8	0.19810832
218	0xbd5ffb20	-0.05468285
219	0x3d8b6ecb	0.068082415
220	0x3e0336f5	0.12813933
221	0x3e6f4f7a	0.23370162
222	0xbdb5ca03	-0.08876421
223	0xbd147ee5	-0.03625383
224	0x3dc0c768	0.09413034
225	0xbdd85e0a	-0.105648115
226	0x3d9e98aa	0.07743962
227	0xbdb66b85	-0.089072265
228	0x3d4895b6	0.0489709
229	0x3c506403	0.012719157
230	0xbea93a9a	-0.33052522
231	0x3d14de0d	0.036344577
232	0xbf64b44e	-0.89337623
233	0xbde6beef	-0.112668864
234	0x3deec27e	0.1165819
235	0x3d9249ba	0.071429685
236	0x3ce2a862	0.027668182
237	0xbd4d4ca4	-0.05012192
238	0xbbf4f18c	-0.0074750837
239	0xbd026c69	-0.03184167
240	0x3d1fd549	0.039021764
241	0x3d53d37e	0.051715367
242	0xbeecbbb1	-0.46236947
243	0x3de7e137	0.11322253
244	0x3db884d6	0.090097114
245	0xbd12b43d	-0.03581642
246	0xbda802a9	-0.082036324
247	0xbe35b74e	-0.17745706
248	0x3dae36da	0.08506556
249	0xbc8ceb85	-0.017202148
250	0xbca921fa	-0.020646084
251	0xbd46c3e2	-0.048526652
252	0x3ce32b20	0.027730525
253	0x3d2fe39f	0.042941686
254	0x3dc10c05	0.09426121
255	0x3dcc600c	0.09979257

net.4.bias f4 [64]
0	0xbca1df61	-0.019759836
1	0xbd98f485	-0.074685134
2	0x3de12155	0.10992686
3	0xbd61583f	-0.0550158
4	0xbde34779	-0.11097617
5	0xbd362a5d	-0.044473995
6	0xbd1c8a7c	-0.038218006
7	0xbd4d12d7	-0.050066795
8	0x3bb052bd	0.005380957
9	0x3be453c1	0.006967992
10	0xbd99b099	-0.075043865
11	0xbe2af319	-0.16694297
12	0xbe084169	-0.13306202
13	0xbdae0a37	-0.08498042
14	0x3d9c4769	0.07630808
15	0xbd35e0d3	-0.044403862
16	0xbe098cd3	-0.13432626
17	0xbe02afaa	-0.12762323
18	0xbd6b7f10	-0.057494223
19	0xbe3cf0ae	-0.18451187
20	0x3cf2dc74	0.029646136
21	0xbda7b411	-0.08188642
22	0xbe17de96	-0.14831004
23	0xbe40e015	-0.1883548
24	0xbe523caa	-0.20530954
25	0xbe0ce68b	-0.1375982
26	0xbde2ede2	-0.11080529
27	0xbd9c3cda	-0.07628794
28	0xbe50810d	-0.20361729
29	0x3d6d8acd	0.0579937
30	0xbe294c41	-0.16532995
31	0x3c8e06f1	0.017337294
32	0xbd157cd5	-0.036496002
33	0xbda1cf64	-0.07900885
34	0x3c870760	0.016483009
35	0x3d369fa5	0.044585843
36	0xbdcfa89d	-0.10139582
37	0xbd753acd	-0.05987053
38	0xbcb1aaa7	-0.021687819
39	0xbda3e85a	-0.08003302
40	0x3d2f4028	0.042785794
41	0xbd83d3fa	-0.06436916
42	0xbd1b9301	-0.03798199
43	0xbe040291	-0.12891604
44	0xbd5f432e	-0.054507427
45	0xbd7890a1	-0.060684804
46	0xbdb7b50d	-0.089700796
47	0xbe0fc61e	-0.1404042
48	0xbe4be9b7	-0.19913374
49	0x3c0e5361	0.008686871
50	0x3cb718db	0.02235072
51	0x3b81118d	0.00393886
52	0xbdd8abca	-0.10579641
53	0xbdc40df7	-0.09572976
54	0xbb75ebfc	-0.003752469
55	0xbce51553	-0.02796427
56	0x3d1409af	0.036142047
57	0xbe104782	-0.14089778
58	0xbc73a8b5	-0.014871766
59	0xbd9f0523	-0.077646516
60	0x3da758c3	0.08171227
61	0xbd24c129	-0.040223274
62	0x3da41b65	0.080130376
63	0x3d06ec38	0.03294012

net.6.weight f4 [1, 64]
0	0x3e80413d	0.25049773
1	0x3e7f3434	0.24922258
2	0x3a48a9c7	0.00076546933
3	0x3e5faafa	0.21842566
4	0x3ce0a97e	0.02742457
5	0x3e948332	0.29006344
6	0xb7acb4a8	-2.0588122e-05
7	0xbc6b984b	-0.014379571
8	0xbd33793d	-0.043816794
9	0x3cf48973	0.029850697
10	0x3d3cd572	0.046101995
11	0xbdd63698	-0.10459632
12	0x3c957292	0.018243108
13	0x3d8b54de	0.068032965
14	0xbd1aa87c	-0.037758335
15	0x3dd61db0	0.10454881
16	0xbd22bc52	-0.039730377
17	0xbe8d6c15	-0.27621523
18	0x3d5249a1	0.05133975
19	0x3d7e4a14	0.062082365
20	0x399752fd	0.00028862795
21	0x3d4155b2	0.047200866
22	0xbdd7749d	-0.10520289
23	0x3d768989	0.060189757
24	0xbdd8c14b	-0.10583743
25	0x3e02eeb8	0.12786376
26	0xbd7d106b	-0.061783236
27	0x3e0e8f4f	0.13921855
28	0x3d68e902	0.05686284
29	0xbd4bf82f	-0.049797233
30	0xbd32c478	-0.0436444
31	0x3dfa3230	0.12216604
32	0x3e8fd140	0.28089333
33	0xbdd81742	-0.10551311
34	0x3a7e8d80	0.0009710416
35	0xbce6c3f7	-0.028169615
36	0x3e061b97	0.13096462
37	0x3d96c6ef	0.07362162
38	0xbdcff1d2	-0.101535454
39	0xbdcbcaea	-0.09950812
40	0x3db25aad	0.08708701
41	0x3e4a329d	0.1974587
42	0xbdb07efc	-0.0861797
43	0x3d8eb301	0.06967736
44	0x3d489920	0.048974156
45	0xbdb04e38	-0.08608669
46	0x3ddcb311	0.10776342
47	0x3dc750ac	0.09732184
48	0xbe4a4ea5	-0.19756563
49	0x3e4efa15	0.20212586
50	0x3bae0917	0.005311142
51	0xbca48c9e	-0.020086583
52	0x3d0bb18c	0.03410487
53	0x3df40e7a	0.11916824
54	0x3d5a0e19	0.0532361
55	0x3cfb343d	0.030664558
56	0x3cf904a6	0.030397724
57	0xbdfe54c0	-0.124185085
58	0x3dc193d1	0.09452022
59	0xbe1cded6	-0.1531938
60	0x3e9ce002	0.30639654
61	0x3d44685c	0.047951087
62	0xbd333233	-0.043749046
63	0xbd384276	-0.044985257
